src/app/models/AAPL-best-val_loss=0.0011.ckpt (torch, 396837 bytes, 27 tensors)

lstm.weight_ih_l0 f4 [200, 5]
0.019738307 0.06885981 -0.096651085 0.13264449 0.0062344214 0.105009735 0.03702674 -0.07571141
-0.004521936 0.008623461 -0.055272542 0.03829767 0.08699235 0.127318 0.13070352 0.061641514
0.10546266 -0.07277947 -0.0872563 0.14042562 0.1255607 0.0079508815 0.16975331 0.107175104
0.07640131 0.005677989 -0.10354348 0.04907322 0.012849514 0.0009824729 0.08402077 -0.03061027
-0.08253581 -0.036756273 -0.061357293 0.0036103916 0.050528727 0.13109711 -0.14432187 -0.0040926537
-5.3678625e-05 -0.10209835 0.13763508 0.08014601 -0.03592931 0.15668523 0.07523121 -0.013873672
0.08741272 0.106079124 0.119849786 0.016276903 0.09247264 0.0948482 -0.101354405 -0.03525308
0.09357273 0.026556905 0.12257234 0.10943569 0.084886864 0.09824708 -0.07958703 -0.009275671
-0.024755104 0.016048372 0.008930518 -0.060390305 -0.14301471 0.08489147 0.041406512 -0.10352687
-0.09485452 0.12110887 0.16625723 0.14933634 -0.039267365 0.16350123 0.024940062 -0.03660041
0.038500722 0.09574961 -0.0758413 0.065728106 0.01370913 -0.07638806 0.0710483 -0.06871911
0.032511164 0.015837466 -0.083266795 -0.0369379 0.041580893 0.04760168 0.004636172 -0.032219604
-0.08392837 0.009287455 -0.047719754 -0.024513207 -0.106484205 0.024092052 0.03199851 -0.029082041
-0.07645051 0.089994945 -0.11953489 0.14165232 -0.035034765 -0.048001423 -0.07678273 0.07954041
0.09236694 -0.0331369 -0.11433537 -0.061517764 -0.006749002 0.0653814 -0.0006234779 -0.05612302
0.15750371 -0.011389454 0.1524381 0.07328818 0.061130498 -0.062361673 -0.073250815 -0.042581216
-0.04952053 0.11306288 0.057499923 -0.13966276 -0.1457572 -0.038209874 0.09928459 0.12407443
-0.022755569 0.06939662 -0.044084437 0.11716942 0.101083905 0.084081516 -0.054424837 0.105441354
0.060189024 0.07937159 0.13674547 -0.0034181492 0.104431406 0.044742603 -0.017641254 0.07192104
0.12506726 0.03325162 0.04497009 -0.012858787 -0.06587463 -0.09901886 0.027335264 0.12472136
-0.104749575 0.049499925 0.006356524 0.007177085 -0.13157631 -0.018933572 -0.099806994 0.030966608
0.08865733 -0.08574991 -0.12248489 -0.09745724 0.049954627 -0.0037192455 0.054590423 0.0787848
0.18937348 0.18403521 -0.06630412 0.037280746 -0.055120204 0.059511263 0.11116138 0.12850444
-0.040103786 0.1667233 -0.064361185 -0.039905094 -0.015649151 -0.02576235 0.03524382 0.10532045
-0.0642766 0.07071463 0.0980382 -0.070098974 0.019330923 0.05605464 -0.016954727 0.061207473
0.05321718 0.023689503 0.013221383 -0.059490353 0.013876578 0.037162624 0.069171794 0.12376004
0.11610204 0.012109398 0.04035947 0.05422656 0.048841022 -0.010404904 -0.06474412 0.08421349
0.010491088 -0.10514707 -0.0805691 -0.01153418 0.049102064 -0.106041186 -0.034100678 0.041616607
0.050709907 0.009032167 -0.14271677 0.055067193 -0.023734879 0.032564137 -0.057353634 0.07682193
-0.01031242 -0.03568497 -0.035835754 0.16502419 0.12196875 -0.0808875 0.02221259 -0.06682588
-0.079559065 0.123190485 0.07385876 -0.0625236 0.15256622 -0.042842947 0.10625784 -0.073829025
0.12453303 0.13628258 0.07031579 0.03522669 0.10919718 -0.055637576 -0.014469815 -0.13928215
00000000: 3bb2 a13c 5f06 8d3d 01f1 c5bd f5d3 073e
00000010: 1e4a cc3b 580f d73d 5aa9 173d 950e 9bbd
00000020: c02c 94bb 6b49 0d3c 7665 62bd 05de 1c3d
00000030: 0c29 b23d a65f 023e 25d7 053e d07b 7c3d
00000040: cffc d73d 670d 95bd 6eb3 b2bd bccb 0f3e
00000050: fc92 003e 6a44 023c d0d3 2d3e 9f7e db3d
00000060: 4a78 9c3d 6d0e ba3b 9b0e d4bd 0001 493d
00000070: c586 523c 52c6 803a 1513 ac3d 64c2 fabc
00000080: 8908 a9bd bf8d 16bd c951 7bbd 529c 6c3b
00000090: 36f7 4e3d 523e 063e 1dc9 13be ab1b 86bb
000000a0: fc24 61b8 f118 d1bd 36f0 0c3e 9723 a43d
000000b0: 9d2a 13bd 1872 203e d212 9a3d 664e 63bc
000000c0: 7105 b33d 0340 d93d ce73 f53d 2457 853c
000000d0: 4c62 bd3d c63f c23d e692 cfbd 8965 10bd
000000e0: 0fa3 bf3d de8d d93c 3507 fb3d d21f e03d
000000f0: 2ad9 ad3d c435 c93d 86fe a2bd fcf8 17bc
00000100: 37cb cabc e077 833c 4f51 123c d35b 77bd
00000110: 7372 12be 94db ad3d e099 293d e505 d4bd
00000120: 1643 c2bd ed07 f83d 563f 2a3e a0eb 183e
00000130: d1d6 20bd de6c 273e 1a4f cc3c 50ea 15bd
00000140: efb2 1d3d 5f18 c43d af52 9bbd 759c 863d
00000150: 429c 603c 5871 9cbd c581 913d 9bbc 8cbd
00000160: 6d2a 053d 93bd 813c c887 aabd 324c 17bd
00000170: ba50 2a3d fbf9 423d 08eb 973b b4f8 03bd
00000180: a3e2 abbd 692a 183c ca75 43bd eccf c8bc
00000190: 6414 dabd b25c c53c df10 033d 763d eebc
000001a0: 1692 9cbd 454f b83d b5ce f4bd 4e0d 113e
000001b0: 9d80 0fbd 249d 44bd 4440 9dbd 15e6 a23d
000001c0: e12a bd3d 8fba 07bd aa28 eabd 0dfa 7bbd
000001d0: bb26 ddbb afe6 853d e570 23ba 40e1 65bd
000001e0: a748 213e d59a 3abc bc18 1c3e 1d18 963d
000001f0: f963 7a3d f46e 7fbd 8604 96bd a469 2ebd
00000200: 0ad6 4abd 838d e73d 0a85 6b3d c103 0fbe
00000210: 6041 15be f581 1cbd b855 cb3d bc1a fe3d
00000220: e369 babc d11f 8e3d e291 34bd 85f6 ef3d
00000230: 1405 cf3d ee32 ac3d 94ec 5ebd a3f1 d73d
00000240: c488 763d 928d a23d 0107 0c3e 0703 60bb
00000250: 22e0 d53d 0544 373d 6484 90bc 574b 933d
00000260: a211 003e da32 083d 8f32 383d a9ad 52bc
00000270: 47e9 86bd 66ca cabd 34ee df3c ea6d ff3d
00000280: f286 d6bd 6fc0 4a3d 634a d03b c12d eb3b
00000290: f1bb 06be 941a 9bbc 9c67 ccbd afad fd3c
000002a0: f991 b53d a69d afbd 5cd9 fabd a997 c7bd
000002b0: 399d 4c3d 96be 73bb 359a 5f3d ed59 a13d
000002c0: 1feb 413e ba73 3c3e 74ca 87bd b2b3 183d
000002d0: b9c5 61bd 15c2 733d 94a8 e33d ab96 033e
000002e0: de43 24bd 83b9 2a3e cccf 83bd 8673 23bd
000002f0: a632 80bc 900b d3bc d35b 103d 40b2 d73d
00000300: 73a3 83bd d5d2 903d 40c8 c83d 0d90 8fbd
00000310: e25b 9e3c 8d99 653d a4e4 8abc b0b4 7a3d
00000320: 42fa 593d 7d10 c23c 809e 583c 28ac 73bd
00000330: 965a 633c d637 183d f1a9 8d3d e775 fd3d
00000340: e8c6 ed3d 7f66 463c f94f 253d ab1c 5e3d
00000350: 860d 483d 5579 2abc 9198 84bd 1f78 ac3d
00000360: d0e2 2b3c 5957 d7bd 6a01 a5bd dbf9 3cbc
00000370: 3f1f 493d 1f2c d9bd 27ad 0bbd 2d76 2a3d
00000380: 31b5 4f3d a7fb 133c 5824 12be 238e 613d
00000390: a66f c2bc f961 053d a5eb 6abd d154 9d3d
000003a0: 6df5 28bc 672a 12bd 83c8 12bd 1afc 283e
000003b0: c1ca f93d 58a8 a5bd 2df7 b53c 02dc 88bd
000003c0: ddef a2bd 4b4b fc3d 4343 973d 600c 80bd
000003d0: 523a 1c3e 167c 2fbd b69d d93d ac33 97bd
000003e0: 2c0b ff3d a98d 0b3e ba01 903d dd49 103d
000003f0: c5a2 df3d 3ae4 63bd ce12 6dbc fb9f 0ebe

lstm.weight_hh_l0 f4 [200, 50]
-0.07401252 -0.028346034 0.010041498 -0.11063675 0.11991484 -0.10718117 -0.03939613 -0.081344046
0.050385147 -0.1303198 -0.06328626 0.0015082216 -0.009836047 0.070212744 0.026108185 -0.031135129
0.06190339 0.05386352 0.16623421 0.029659433 -0.033333015 0.010638797 -0.020306647 -0.021943273
0.010966673 -0.10859214 0.11433192 -0.17176251 -0.023982506 -0.12615168 0.11463136 -0.17405957
0.11381769 0.025228592 -0.111293875 0.07329481 -0.14314952 0.009022414 0.16065373 -0.13225375
-0.0039268266 -0.09744555 -0.11715953 0.1088247 -0.10588349 -0.1517277 0.12573259 -0.07911509
0.07272664 0.13096894 0.07596022 -0.121365234 -0.12733103 -0.051882796 0.109448165 -0.020536719
-0.07956649 0.0335456 -0.14422858 0.011190313 -0.030150214 -0.07387792 0.021295745 0.08895216
0.08578167 0.042298146 0.008969469 -0.15396257 0.05652606 -0.016924677 0.030731207 -0.09399704
-0.061858486 0.073105484 0.010597605 0.025629245 -0.119787686 -0.078560226 0.1217413 -0.08285688
0.06761892 -0.09258979 0.053144824 0.07725562 -0.072991885 0.07455155 -0.013228578 -0.07396385
-0.055405937 0.05777345 -0.012449156 -0.014431446 0.08135902 -0.033564173 -0.08041258 -0.028974473
-0.042854324 -0.08594506 -0.09069611 -0.0008292219 -0.0048422418 0.040391304 0.076370575 -0.05539894
0.042061705 -0.069406964 -0.08379078 0.09929549 0.0046381177 -0.10810829 -0.07017601 -0.033751477
0.007892935 0.027249135 -0.12921146 -0.003713742 0.01908257 -0.034617245 0.045270715 0.03584151
-0.06592488 0.11704321 -0.072411165 -0.099614866 0.1181039 -0.08842872 -0.05848171 -0.007025321
-0.1288153 -0.14801814 -0.109803885 -0.13834375 -0.06110797 -0.053844884 0.14107145 0.11371046
0.09593042 0.016743362 0.06581838 -0.14728537 -0.015943252 -0.02281775 -0.09527483 0.014891267
0.025062291 -0.039669123 0.0057085063 -0.0010337337 0.13011087 0.120598346 -0.13892604 -0.07771066
-0.03009704 -0.108120434 0.07364435 -0.14972414 -0.12428376 -0.0873914 0.007309315 -0.007476581
0.013400672 0.021360394 -0.10754716 0.04617432 0.10671058 -0.016394641 -0.10266141 0.009627944
-0.09487216 0.026131071 -0.0656692 0.041613188 0.02237448 0.06660342 -0.114512056 0.12161221
-0.100934975 -0.08805987 -0.06025786 0.051644403 -0.07751586 -0.13148151 0.091041826 0.09217737
0.1221161 0.007038781 0.07855053 0.11766325 0.062670395 0.101716824 -0.03515522 0.07183095
-0.016590565 0.117733605 -0.09791102 0.04118868 -0.017360216 -0.15061006 0.13941798 0.09139215
-0.08138167 -0.025577413 -0.04147081 0.04083633 0.07838866 -0.052708775 -0.11821716 -0.02715553
0.100457504 0.056719128 0.12913918 0.0047249696 0.06895249 -0.12327197 0.11184742 -0.13082202
0.039277747 0.08310988 -0.018336296 -0.016299887 0.11918918 0.0805724 0.063049175 -0.07465114
0.12802505 -0.03647284 -0.09453655 -0.053907935 0.123667695 -0.07255769 0.030409763 0.020175934
0.018941114 0.018837014 -0.14467947 -0.05405745 -0.011254134 -0.04328898 -0.04615483 0.11450632
0.009710383 0.036219135 0.032699246 0.004941258 0.05839758 -0.13620467 0.12500645 0.09872662
-0.09152159 0.032962527 0.103847146 -0.10142414 0.030201172 -0.14549336 -0.12841621 -0.013360977
00000000: e093 97bd f135 e8bc 1885 243c 8595 e2bd
00000010: e995 f53d cd81 dbbd d65d 21bd b597 a6bd
00000020: a860 4e3d 8e72 05be 3a9c 81bd 85af c53a
00000030: 5f27 21bc b3cb 8f3d d5e0 d53c 190f ffbc
00000040: 698e 7d3d ff9f 5c3d 4d39 2a3e 57f8 f23c
00000050: 3388 08bd 594e 2e3c 205a a6bc 61c2 b3bc
00000060: 8fad 333c 8e65 debd db26 ea3d 83e2 2fbe
00000070: f676 c4bc e82d 01be d9c3 ea3d ac3c 32be
00000080: 4019 e93d 31ac ce3c 0bee e3bd 971b 963d
00000090: ca95 12be bfd2 133c 6982 243e 876d 07be
000000a0: 9cac 80bb 8891 c7bd 56f1 efbd 7cdf de3d
000000b0: 71d9 d8bd 825e 1bbe 0bc0 003e 1807 a2bd
000000c0: b4f1 943d b91c 063e 0891 9b3d 568e f8bd
000000d0: 1163 02be 0e83 54bd 5c26 e03d 9f3c a8bc
000000e0: c2f3 a2bd 1c67 093d a8b0 13be 9357 373c
000000f0: 95fd f6bc 4f4d 97bd 6a74 ae3c 8d2c b63d
00000100: 4dae af3d d240 2d3d aef4 123c 5da8 1dbe
00000110: df87 673d 9fa5 8abc 03c0 fb3c 8581 c0bd
00000120: 535f 7dbd 54b8 953d 94a1 2d3c 6cf4 d13c
00000130: 3f53 f5bd 2fe4 a0bd 8153 f93d deb0 a9bd
00000140: ca7b 8a3d b79f bdbd 63ae 593d 3238 9e3d
00000150: c57c 95bd 7cae 983d adbc 58bc 5c7a 97bd
00000160: 56f1 62bd daa3 6c3d 8bf7 4bbc df71 6cbc
00000170: 8f9f a63d 967a 09bd 5aaf a4bd e05b edbc
00000180: 0488 2fbd f703 b0bd e2be b9bd 2460 59ba
00000190: abab 9ebb 5a71 253d 2d68 9c3d 00ea 62bd
000001a0: e548 2c3d 3d25 8ebd 809a abbd 6f5b cb3d
000001b0: 5afb 973b e167 ddbd 71b8 8fbd fd3e 0abd
000001c0: 5e51 013c 9439 df3c 0250 04be 4062 73bb
000001d0: 0d53 9c3c d0ca 0dbd c96d 393d 8cce 123d
000001e0: a003 87bd 5ab4 ef3d 4e4c 94bd e102 ccbd
000001f0: 75e0 f13d 1e1a b5bd 848a 6fbd aa34 e6bb
00000200: 28e8 03be 1192 17be dce0 e0bd fca9 0dbe
00000210: 5a4c 7abd 748c 5cbd 0975 103e 08e1 e83d
00000220: 2b77 c43d 6029 893c c9cb 863d fad1 16be
00000230: 6c9b 82bc 4aec babc 731f c3bd 80fa 733c
00000240: 6f4f cd3c 177c 22bd 6c0e bb3b 597e 87ba
00000250: c93b 053e 44fc f63d a142 0ebe c426 9fbd
00000260: 118e f6bc 3f6e ddbd d9d2 963d 4951 19be
00000270: 7c88 febd 43fa b2bd fa82 ef3b 1bfe f4bb
00000280: 7e8e 5b3c fefb ae3c af41 dcbd 4921 3d3d
00000290: 148b da3d 0e4e 86bc 2540 d2bd 86be 1d3c
000002a0: 564c c2bd d410 d63c 937d 86bd 9772 2a3d
000002b0: af4a b73c 6067 883d 4c85 eabd d30f f93d
000002c0: ffb6 cebd bc58 b4bd f2d0 76bd 1589 533d
000002d0: a3c0 9ebd 17a3 06be 2374 ba3d 7dc7 bc3d
000002e0: 0118 fa3d 93a5 e63b 1adf a03d 6ef9 f03d
000002f0: 5659 803d e950 d03d ecfe 0fbd 1b1c 933d
00000300: f0e8 87bc 511e f13d 9385 c8bd 76b5 283d
00000310: 0337 8ebc 8639 1abe 96c3 0e3e cf2b bb3d
00000320: 6fab a6bd b987 d1bc 4cdd 29bd ff43 273d
00000330: 3c8a a03d 28e5 57bd d71b f2bd 4675 debc
00000340: aabc cd3d 5152 683d 103d 043e ebd3 9a3b
00000350: f736 8d3d 0476 fcbd 4310 e53d 35f6 05be
00000360: b4e1 203d 8335 aa3d 0036 96bc 5787 85bc
00000370: 7519 f43d 2403 a53d ed1f 813d b2e2 98bd
00000380: 0019 033e 8b64 15bd 619c c1bd 91ce 5cbd
00000390: 7d45 fd3d 2099 94bd e51d f93c 0048 a53c
000003a0: 652a 9b3c 1550 9a3c db26 14be 586b 5dbd
000003b0: 4263 38bc c94f 31bd d90c 3dbd 4a82 ea3d
000003c0: 4c18 1f3c 845a 143d a5ef 053d 47ea a13b
000003d0: 4d32 6f3d 3d79 0bbe b101 003e 2f31 ca3d
000003e0: ac6f bbbd b703 073d d0ad d43d 76b7 cfbd
000003f0: 7368 f73c 36fc 14be 8a7f 03be 00e8 5abc

lstm.bias_ih_l0 f4 [200]
0.06214125 -0.01611682 -0.059590105 0.112903304 -0.082215644 0.06257921 0.076443315 -0.048154414
-0.07041807 -0.10711837 0.13075255 0.07511983 -0.104597375 0.0037252472 -0.10623118 0.043177996
0.11725561 -0.09553706 0.019226184 0.081603356 -0.09790923 0.04640165 -0.0055099027 0.037489112
-0.06779272 -0.06433933 0.04778523 0.032938886 0.100191936 -0.0781136 -0.072016194 -0.01615403
-0.08259632 -0.058726113 -0.012241108 0.1608229 0.06762832 0.10315178 -0.035217095 -0.103689164
-0.110949926 0.047230862 -0.04407022 -0.011506906 0.014381863 -0.022218255 -0.030243265 0.05535826
0.004306873 0.010774624 -0.02728562 0.09388138 0.12736425 -0.04935207 0.15910451 0.044597913
-0.106599264 -0.100886285 -0.06002724 -0.10633314 -0.038831614 0.016751416 -0.10296816 -0.11719364
-0.02266618 -0.062378738 -0.13047935 0.090746276 0.00093169144 -0.071031086 0.017675677 -0.08934374
0.0791741 -0.08538583 -0.024656458 0.07764314 -0.028486274 -0.066998504 -0.081542864 0.13333692
0.11594828 -0.06588815 -0.10698449 -0.13200192 0.11052583 0.14882 -0.0994138 0.023019139
0.06299514 0.09364571 -0.042296156 0.06671618 0.15582779 0.066310674 0.15082628 -0.09904621
0.035606142 0.037741024 -0.06686224 0.07071153 -0.04864641 0.027291967 0.043015372 -0.106921904
0.020509683 -0.06351579 0.14516196 -0.05776493 0.007497483 -0.119117 -0.023874072 0.06959421
0.09566466 -0.041044287 0.0525956 -0.087614775 -0.05992088 0.10774399 -0.018257469 0.12707664
0.12551774 -0.03113346 -0.13628925 -0.08508314 0.08199594 -0.021799242 -0.09677808 -0.018437518
-0.10985684 -0.12489013 -0.005682495 0.1356534 -0.05656797 0.07942778 0.13831945 0.024240576
-0.13922788 -0.13171291 -0.008604505 -0.08161169 -0.010231845 -0.13750051 -0.07931684 -0.048945818
-0.094775 -0.10507075 0.045650702 -0.098593734 -0.017943045 0.06753303 0.1373493 0.07937215
0.014708611 0.09765017 -0.06535085 0.034366366 0.08017728 -0.1331559 0.108624384 0.113736436
-0.12763251 -0.011038783 0.0065665003 -0.13238208 0.11961351 0.036121856 -0.08983491 0.11266768
-0.13952717 0.061674796 0.004827943 0.15096228 -0.082040295 -0.039353482 -0.11652831 0.14648595
0.04640059 0.10685708 0.08942262 0.08999655 0.12540881 0.0147471065 0.0028513458 0.028729964
-0.014607913 0.061976388 -0.07448953 0.1506291 0.064974226 -0.079152316 -0.14761136 -0.10450997
-0.05124692 -0.05818382 0.028673992 -0.0769028 0.06515721 0.08165922 -0.10640664 0.06944227
00000000: d387 7e3d 6c07 84bc c114 74bd d939 e73d
00000010: ad60 a8bd 8729 803d 508e 9c3d 903d 45bd
00000020: 5937 90bd e060 dbbd ffe3 053e 6dd8 993d
00000030: 2637 d6bd 4723 743b bc8f d9bd 69db 303d
00000040: b623 f03d efa8 c3bd 3b80 9d3c a91f a73d
00000050: a284 c8bd a80f 3e3d 6a8c b4bb 2f8e 193d
00000060: e9d6 8abd 57c4 83bd 72ba 433d edea 063d
00000070: 6e31 cd3d 06fa 9fbd 3a7d 93bd 7555 84bc
00000080: 4228 a9bd cb8a 70bd ee8e 48bc c2ae 243e
00000090: b780 8a3d 3e41 d33d cd3f 10bd fc5a d4bd
000000a0: b739 e3bd 2675 413d fa82 34bd 7687 3cbc
000000b0: e8a1 6b3c 0f03 b6bc b9c0 f7bc 58bf 623d
000000c0: ab20 8d3b 0c88 303c 1886 dfbc e244 c03d
000000d0: c66b 023e 6525 4abd 4bec 223e 4dac 363d
000000e0: b750 dabd 789d cebd 20df 75bd 30c5 d9bd
000000f0: e60d 1fbd 443a 893c f8e0 d2bd 3803 f0bd
00000100: 6dae b9bc d980 7fbd 619c 05be 2fd9 b93d
00000110: c13c 743a bf78 91bd 95cc 903c daf9 b6bd
00000120: 0826 a23d c4de aebd 57fc c9bc 5e03 9f3d
00000130: 0c5c e9bc 8336 89bd f2ff a6bd 7989 083e
00000140: 4b76 ed3d 5ef0 86bd af1a dbbd 832b 07be
00000150: 5e5b e23d 4564 183e 7699 cbbd a292 bc3c
00000160: 9903 813d 52c9 bf3d bc3e 2dbd 7ea2 883d
00000170: 5291 1f3e e4cd 873d 3472 1a3e bdd8 cabd
00000180: bfd7 113d 5596 1a3d 12ef 88bd 35d1 903d
00000190: 7541 47bd 6793 df3c e330 303d dff9 dabd
000001a0: ec03 a83c 9114 82bd 56a5 143e eb9a 6cbd
000001b0: 72ad f53b 9df3 f3bd 8f93 c3bc 6987 8e3d
000001c0: d5eb c33d 0e1e 28bd 7c6e 573d 606f b3bd
000001d0: 996f 75bd e2a8 dc3d b090 95bc 6120 023e
000001e0: b987 003e 990b ffbc 698f 0bbe 1240 aebd
000001f0: 7ded a73d 5394 b2bc 9633 c6bd 470a 97bc
00000200: 9ffc e0bd 65c6 ffbd 3934 babb bae8 0a3e
00000210: d1b3 67bd 08ab a23d 9da3 0d3e 2c94 c63c
00000220: c191 0ebe c0df 06be e9f9 0cbc 0824 a7bd
00000230: 78a3 27bc efcc 0cbe de70 a2bd 697b 48bd
00000240: 6519 c2bd 552f d7bd 3bfc 3a3d 83eb c9bd
00000250: 4bfd 92bc c24e 8a3d 4ba5 0c3e de8d a23d
00000260: 63fc 703c d0fc c73d abd6 85bd bfc3 0c3d
00000270: fc33 a43d 055a 08be 7676 de3d a6ee e83d
00000280: 19b2 02be 03dc 34bc cc2b d73b 2b8f 07be
00000290: eef7 f43d 83f4 133d 5efb b7bd 50be e63d
000002a0: 36e0 0ebe b69e 7c3d b933 9e3b db95 1a3e
000002b0: be04 a8bd 1e31 21bd 65a6 eebd 6a00 163e
000002c0: 8c0e 3e3d e2d7 da3d 3523 b73d 1c50 b83d
000002d0: 2b6b 003e d99d 713c a5dd 3a3b 1a5b eb3c
000002e0: 0756 6fbc f4da 7d3d f78d 98bd 843e 1a3e
000002f0: 3511 853d 9c1a a2bd 6f27 17be 5309 d6bd
00000300: 4ae8 51bd 2852 6ebd b8e5 ea3c 377f 9dbd
00000310: 2571 853d f33c a73d b9eb d9bd c037 8e3d

lstm.bias_hh_l0 f4 [200]
-0.00990174 -0.087725796 0.11723625 -0.10869186 0.0064835344 -0.056160245 0.059182625 -0.09462862
0.07393216 -0.12628977 0.040202104 0.018942323 -0.11587086 -0.056602933 0.1147177 -0.057073656
-0.017960837 0.0123596005 0.038480237 0.14796677 -0.09880227 0.13963117 0.028134516 -0.0597517
0.06052428 -0.117550366 0.028239526 -0.040170517 0.13138457 0.025781494 -0.057942938 0.025331339
0.021502506 -0.121654935 -0.027622756 -0.051331986 -0.1248888 0.062056534 0.10294353 0.03885014
-0.12502179 -0.08630414 0.13827077 0.040864114 -0.102547616 0.066257045 -0.007957978 -0.11060168
-0.017702699 0.061114866 0.040325005 -0.09703839 0.008666775 -0.031259153 0.019996462 -0.057663027
-0.09790442 0.028687889 0.09415362 0.10938993 -0.032533776 -0.04699912 0.058998466 0.11556165
-0.10397854 -0.041782267 0.024475016 0.032588907 0.040449962 -0.022554886 0.12302316 0.15455168
0.10471217 -0.1324088 0.1081005 -0.10697299 0.008888089 0.15769523 0.14153402 0.1410732
0.0177233 0.06514684 -0.028843926 0.05071144 0.16581412 -0.025098098 -0.09030089 0.13899706
-0.10723159 -0.06404996 -0.029166779 -0.08540467 -0.09621923 -0.05298917 0.016520698 0.025292957
0.039387118 -0.063131034 0.15406388 -0.14142048 0.012203201 -0.12658082 0.099050656 -0.14016528
-0.12942019 -0.081787996 0.06803166 -0.10654378 0.036926653 -0.052963175 -0.091423325 -0.022440586
-0.08235917 -0.11487234 0.048006535 -0.043338403 -0.00794046 0.080156475 0.066612095 0.05219443
-0.073632196 -0.12502116 -0.020740619 0.03566589 0.07853643 0.008638972 0.08730222 0.09991281
0.036114518 -0.14655115 -0.12000935 -0.07046257 0.08925512 -0.07642472 0.0994678 -0.041491933
0.050459545 0.07764715 0.012861526 -0.053065963 0.069831684 -0.13314441 0.027068013 0.097100735
-0.07259614 -0.078494795 0.08605031 -0.0075140162 0.10013487 -0.13327509 0.13240592 -0.001322238
0.060108557 0.05822368 0.036332976 0.0077470024 -0.07175818 -0.028718218 -0.024936827 -0.10068555
-0.12874793 0.07377471 0.11582388 0.02921706 0.06230338 -0.032979064 -0.009675352 -0.031828076
-0.03635145 -0.021962985 0.07345708 -0.1074753 -0.031369112 -0.05348635 -0.04963393 -0.11028724
0.09822375 0.032041557 -0.03053235 -0.07796463 0.049540874 0.12870573 -0.02539854 -0.010768129
-0.040071815 -0.048572153 -0.0025584674 -0.07565897 0.08131692 -0.037589263 -0.11794133 0.022660222
-0.025302213 0.107910596 0.15398914 0.014846579 0.022692312 0.07947194 0.056921937 0.12063561
00000000: e83a 22bc 95a9 b3bd 8f19 f03d d799 debd
00000010: d473 d43b 4908 66bd 7b69 723d a6cc c1bd
00000020: bf69 973d 1b52 01be f6aa 243d ee2c 9b3c
00000030: b44d edbd 7ad8 67bd 1df1 ea3d 11c6 69bd
00000040: 9b22 93bc ec7f 4a3c 749d 1d3d 9a84 173e
00000050: d858 cabd 79fb 0e3e 5b7a e63c 33be 74bd
00000060: 4fe8 773d 3fbe f0bd 9456 e73c d789 24bd
00000070: ad89 063e b633 d33c 9355 6dbd ab83 cf3c
00000080: 0626 b03c 3926 f9bd 1e49 e2bc 7d41 52bd
00000090: b3c5 ffbd fe2e 7e3d 0fd4 d23d 5321 1f3d
000000a0: b605 00be 3ac0 b0bd da96 0d3e 2161 273d
000000b0: 7c04 d2bd c6b1 873d 2e62 02bc 2283 e2bd
000000c0: 4005 91bc 9553 7a3d d52b 253d 10bc c6bd
000000d0: 17ff 0d3c 9909 00bd 9fcf a33c 1130 6cbd
000000e0: 1d82 c8bd dd02 eb3c 9dd3 c03d d407 e03d
000000f0: 2342 05bd 2682 40bd 60a8 713d 96ab ec3d
00000100: b3f2 d4bd e223 2bbd d47f c83c f27b 053d
00000110: dcae 253d 06c5 b8bc 91f3 fb3d cc42 1e3e
00000120: 5673 d63d 2c96 07be cc63 dd3d a814 dbbd
00000130: 599f 113c dc7a 213e 4bee 103e 7e75 103e
00000140: 7430 913c b56b 853d 194a ecbc cdb6 4f3d
00000150: 2dcb 293e 879a cdbc acef b8bd 3f55 0e3e
00000160: 3c9c dbbd a02c 83bd 2bef eebc a5e8 aebd
00000170: 960e c5bd 2c0b 59bd 6a56 873c 2d33 cf3c
00000180: 6354 213d d84a 81bd ecc2 1d3e 88d0 10be
00000190: efef 473c 679e 01be 12db ca3d 7d87 0fbe
000001a0: ba86 04be 7780 a7bd 2f54 8b3d a033 dabd
000001b0: 6740 173d eaef 58bd 273c bbbd 52d5 b7bc
000001c0: edab a8bd 3042 ebbd 80a2 443d 9c83 31bd
000001d0: b418 02bc 1429 a43d ec6b 883d d4c9 553d
000001e0: 7acc 96bd 8c05 00be 3be8 a9bc 6516 123d
000001f0: b5d7 a03d 7a8a 0d3c 82cb b23d 169f cc3d
00000200: d1ec 133d 8111 16be 76c7 f5bd ae4e 90bd
00000210: 63cb b63d 9084 9cbd c6b5 cb3d 72f3 29bd
00000220: abae 4e3d 7805 9f3d 26b9 523c b25b 59bd
00000230: ea03 8f3d 0257 08be bdbd dd3c c0dc c63d
00000240: 49ad 94bd e1c1 a0bd 253b b03d 2338 f6bb
00000250: 8313 cd3d 4479 08be 6b95 073e f24e adba
00000260: 6434 763d f47b 6e3d e3d1 143d 91da fd3b
00000270: f4f5 92bd 7842 ebbc 5148 ccbc 3a34 cebd
00000280: 7fd6 03be 3217 973d 1235 ed3d 9e58 ef3c
00000290: d431 7f3d 0e15 07bd 5e85 1ebc 285e 02bd
000002a0: 42e5 14bd b8eb b3bc aa70 963d 031c dcbd
000002b0: e67c 00bd 8114 5bbd f34c 4bbd 47de e1bd
000002c0: 8929 c93d 023e 033d fb1e fabc ecab 9fbd
000002d0: 5feb 4a3d 6fcb 033e 9910 d0bc ce6c 30bc
000002e0: 5822 24bd 98f3 46bd f6ab 27bb 17f3 9abd
000002f0: 7c89 a63d 33f7 19bd 398b f1bd eea1 b93c
00000300: 9646 cfbc 3b00 dd3d 54af 1d3e 113f 733c
00000310: 3ae5 b93c 2fc2 a23d fa26 693d cd0f f73d

lstm.weight_ih_l1 f4 [200, 50]
0.113767944 0.075665236 0.05792177 -0.07356896 -0.08717519 -0.14419499 -0.0169027 -0.08874504
0.10272515 -0.07706862 0.1305227 0.06635623 0.029337361 -0.02064478 0.08323492 0.025601929
0.03937167 -0.08258386 -0.048335556 -0.038534153 -0.025641644 -0.058509123 -0.06894665 -0.09141407
-0.014091511 -0.13175376 0.080491394 -0.047627024 -0.04672609 -0.026620166 0.096037045 0.010135569
0.03184122 -0.018909162 0.08709929 0.18943557 -0.14056425 0.036935497 0.046469703 -0.05083108
0.15893017 -0.025017874 0.1144059 0.08650365 -0.13800134 0.020392168 -0.11564562 -0.117273875
-0.06357458 -0.020685302 -0.10050574 0.14318201 -0.010379832 0.02961284 0.06962092 -0.0039757816
-0.0802117 -0.038395315 -0.027235411 0.056699153 -0.07061384 0.11352403 -0.053618558 0.0980538
0.06894676 0.13108145 -0.007341113 0.10402031 -0.0213971 -0.03857566 -0.059946958 0.1075996
0.017272588 -0.00086281507 0.113003194 -0.06495734 -0.0834871 -0.04236342 -0.053761303 0.13179828
0.14974025 -0.11803775 0.09283256 0.0005340938 -0.11363008 0.080249906 0.105827995 -0.10642746
-0.12605006 -0.058161292 -0.049021747 0.07443526 0.02231061 0.03027859 0.030721989 0.054524608
-0.0018545863 -0.05097142 -0.12254348 0.067818634 -0.09468177 0.05394325 -0.09585937 0.07307867
-0.09770541 -0.04052408 -0.004237208 -0.042456727 -0.041518304 0.023815004 -0.08751085 0.11271508
0.14451458 0.075013205 -0.13321267 0.004379482 -0.019091701 -0.14015214 0.0706072 -0.048863743
-0.018043634 0.030609956 -0.018222215 0.12090165 0.1152979 0.15749802 -0.10207919 0.12138764
-0.06905798 0.09145328 0.05673524 -0.10434882 -0.071928695 -0.06490655 0.070722565 0.00587196
-0.046871778 0.01752665 0.08582794 0.04755078 0.10277733 -0.10842088 0.12598643 0.08625791
-0.05004197 -0.024581952 0.02570158 0.035501823 -0.020987077 -0.009683992 -0.10746852 0.022989526
0.11693064 -0.1033268 -0.02963811 -0.011837667 0.08792099 0.045770254 0.06767543 0.101572424
0.12816128 -0.10694979 0.029640159 -0.068603486 -0.022628175 0.006375478 0.020057615 0.06450821
0.14286117 0.13726623 -0.09719161 -0.14469615 0.087739065 -0.05287427 0.06074997 -0.1308841
-0.03152137 -0.09027461 -0.0060622147 -0.030191412 -0.1475254 0.014792142 0.096213296 0.06263762
-0.11387183 -0.086771324 0.0036359353 0.12414093 -0.02645228 -0.0036707462 0.04471966 0.05789655
-0.056683514 0.024432598 0.11812612 -0.037749738 -0.06767306 0.07934658 0.08828326 0.13738215
-0.14455755 -0.0069209253 0.033501092 -0.12977062 -0.09940323 -0.12481309 0.04754637 -0.11531736
-0.03566518 0.08093146 0.0059220614 -0.0061990637 -0.029512953 0.1395383 0.06778047 0.014962077
0.08218417 0.10320742 0.001944116 0.046305325 -0.029144522 -0.011118718 0.04681719 -0.058458716
0.04412234 -0.04113622 -0.14513925 -0.20130685 -0.07789298 -0.1498282 -0.13794684 0.07777117
-0.13275625 0.10030494 0.08931207 0.16696346 0.07075178 -0.09734009 -0.051256444 -0.12125688
0.08162178 -0.14747068 0.0132094165 -0.015015511 -0.0068658576 -0.060260862 0.11060776 -0.053538304
-0.11250543 0.05059325 -0.13789262 0.12854466 0.017405644 -0.05172472 -0.14103113 -0.048691697
00000000: 2bff e83d 60f6 9a3d 613f 6d3d 53ab 96bd
00000010: e888 b2bd daa7 13be 8877 8abc f6bf b5bd
00000020: 9061 d23d 27d6 9dbd bea7 053e c6e5 873d
00000030: e854 f03c 3e1f a9bc 1277 aa3d 23bb d13c
00000040: 3044 213d ba21 a9bd 81fb 45bd fdd5 1dbd
00000050: 6d0e d2bc 43a7 6fbd e733 8dbd 4d37 bbbd
00000060: 15e0 66bc 75ea 06be acd8 a43d 8e14 43bd
00000070: db63 3fbd 8912 dabc 12af c43d a80f 263c
00000080: f06b 023d 63e7 9abc 1d61 b23d 66fb 413e
00000090: 13f0 0fbe ad49 173d 0457 3e3d 4034 50bd
000000a0: 97be 223e 49f2 ccbc a44d ea3d d328 b13d
000000b0: 3950 0dbe 7a0d a73c 9cd7 ecbd 492d f0bd
000000c0: 6433 82bd 3974 a9bc f4d5 cdbd 4e9e 123e
000000d0: 2c10 2abc a096 f23c 6a95 8e3d 4647 82bb
000000e0: 0846 a4bd 6844 1dbd cc1c dfbc 5f3d 683d
000000f0: fd9d 90bd 497f e83d 229f 5bbd 6ed0 c83d
00000100: f533 8d3d 373a 063e b88d f0bb 9a08 d53d
00000110: f948 afbc 8301 1ebd f18a 75bd 2e5d dc3d
00000120: 3e7f 8d3c 8a2e 62ba 386e e73d 5b08 85bd
00000130: 49fb aabd 4485 2dbd d034 5cbd 21f6 063e
00000140: 8255 193e c7bd f1bd ff1e be3d 6e02 0c3a
00000150: e3b6 e8bd 105a a43d 59bc d83d a4f6 d9bd
00000160: 4413 01be 893a 6ebd 07cb 48bd 8371 983d
00000170: bec4 b63c ce0a f83c aeac fb3c 3255 5f3d
00000180: 9715 f3ba 68c7 50bd 13f8 fabd 7fe4 8a3d
00000190: 84e8 c1bd 99f3 5c3d eb51 c4bd 45aa 953d
000001a0: c619 c8bd 94fc 25bd 47d8 8abb 1be7 2dbd
000001b0: 190f 2abd af17 c33c e338 b3bd 2ad7 e63d
000001c0: a1fb 133e 86a0 993d e768 08be c281 8f3b
000001d0: 3366 9cbc 0b84 0fbe 829a 903d 5925 48bd
000001e0: 3ed0 93bc bbc1 fa3c c146 95bc 499b f73d
000001f0: 4e21 ec3d 2947 213e e50e d1bd 159a f83d
00000200: 456e 8dbd db4b bb3d 3663 683d d6b4 d5bd
00000210: 5a4f 93bd baed 84bd fed6 903d 9269 c03b
00000220: 9ffc 3fbd 0d94 8f3c 8fc6 af3d 9bc4 423d
00000230: ec7c d23d c40b debd 9602 013e fda7 b03d
00000240: cff8 4cbd 1760 c9bc 1f8c d23c 5c6a 113d
00000250: 17ed abbc 9ba9 1ebc 7518 dcbd 8854 bc3c
00000260: 5579 ef3d 009d d3bd 9fcb f2bc c6f2 41bc
00000270: ec0f b43d 9779 3b3d 6a99 8a3d 3405 d03d
00000280: b63c 033e 7e08 dbbd ebcf f23c fc7f 8cbd
00000290: b95e b9bc 63e9 d03b de4f a43c e11c 843d
000002a0: 334a 123e 858f 0c3e 650c c7bd 3a2b 14be
000002b0: 8ab0 b33d b192 58bd f6d4 783d 7b06 06be
000002c0: 8d1c 01bd e5e1 b8bd 8ba5 c6bb fb53 f7bc
000002d0: e610 17be be5a 723c 7a0b c53d 2748 803d
000002e0: a235 e9bd 2ab5 b1bd df48 6e3b 9a3d fe3d
000002f0: 74b2 d8bc e790 70bb f62b 373d ef24 6d3d
00000300: f92c 68bd df26 c83c 1bec f13d 789f 1abd
00000310: 2c98 8abd 7680 a23d dbcd b43d e8ad 0c3e
00000320: e506 14be eec8 e2bb 7138 093d 97e2 04be
00000330: ec93 cbbd 019e ffbd fcbf 423d 822b ecbd
00000340: a715 12bd 65bf a53d da0d c23b 8421 cbbb
00000350: 26c5 f1bc 21e3 0e3e 7dd0 8a3d 8023 753c
00000360: 2d50 a83d 695e d33d b5d1 fe3a a7aa 3d3d
00000370: 7ec0 eebc 492b 36bc 62c3 3f3d 6872 6fbd
00000380: a0b9 343d 747e 28bd 629f 14be 6223 4ebe
00000390: 5b86 9fbd 906c 19be f041 0dbe 7e46 9f3d
000003a0: 41f1 07be ad6c cd3d 3fe9 b63d 78f8 2a3e
000003b0: 4fe6 903d 3e5a c7bd 47f2 51bd 8755 f8bd
000003c0: 5229 a73d 8e02 17be 4f6c 583c 9e03 76bc
000003d0: fdfa e0bb 18d4 76bd 5286 e23d fb4a 5bbd
000003e0: 3f69 e6bd de3a 4f3d b933 0dbe 36a1 033e
000003f0: 4896 8e3c 4ddd 53bd 776a 10be f270 47bd

lstm.weight_hh_l1 f4 [200, 50]
-0.056226216 -0.0032405271 -0.023831064 -0.015581309 -0.061581753 0.052133974 -0.04048659 0.06728432
-0.07576881 0.1309739 -0.030832998 -0.14300454 0.13821982 -0.030703956 -0.0935741 0.12735529
-0.1520806 -0.10410852 0.086620405 -0.017669126 -0.056440767 -0.016749812 -0.03306337 -0.06903159
0.047919452 0.012983898 0.15201578 -0.0118889185 -0.012220008 0.08329424 -0.06128014 0.07764368
0.092822544 0.07398657 0.023161285 -0.09029529 -0.0071676583 -0.032810077 0.115084305 -0.09564957
-0.0045328643 -0.16068341 0.062822804 -0.12101152 -0.096077845 -0.048364446 -0.12184275 0.14099374
-0.078670844 -0.017305123 0.08665293 0.15257606 0.046116438 -0.03998022 0.0057347417 -0.067127906
-0.14836869 -0.072706655 -0.10213923 -0.01561063 -0.03516397 0.025404405 0.123232 0.117585205
-0.017570265 -0.05762487 -0.048707962 -0.081029534 -0.044753637 -0.10556589 -0.030476024 -0.14726521
-0.13548265 0.13134383 0.12921776 0.11881411 0.11830985 -0.042331215 -0.00057432154 0.15599124
0.12734969 0.019675562 -0.095067225 0.13731423 0.15970378 -0.0026042124 -0.14436643 0.0031061547
-0.09924972 -0.010869004 0.12311885 -0.09625162 -0.10503832 0.12991042 -0.15115654 0.09766359
0.10348204 0.047214776 0.120677106 0.036181994 0.012522331 0.05852397 -0.028500251 0.08011237
-0.089950964 0.12727825 -0.06385346 -0.042029977 0.008310298 -0.06284735 -0.013612073 0.07421496
-0.044194072 0.14553896 0.1407099 0.0774676 0.017352486 -0.06381974 -0.06807055 -0.02387201
-0.13273154 -0.06868785 -0.120646216 -0.004592441 0.13586515 -0.11003394 0.039724495 0.10397029
0.082609564 -0.02065233 0.0549931 -0.08418078 -0.084058635 0.064986914 -0.059775826 0.12783122
-0.034605596 0.09015369 0.086815946 0.09314722 -0.06307126 -0.111011855 0.097678915 -0.060461517
-0.014542335 0.0046631307 -0.067555614 -0.12413962 0.11601744 0.110038035 -0.012422458 -0.044055324
0.010792426 0.041416883 -0.08560234 -0.1042455 0.048149347 -0.09346008 -0.00057864946 -0.08625177
0.010856842 -0.043876942 0.14998253 0.05457565 -0.015835283 -0.058553822 -0.12484447 0.019934287
0.096859485 0.0827572 0.05848824 -0.060133137 0.10473502 -0.11411053 0.031903792 0.020326193
-0.001598227 -0.053115785 -0.07223806 -0.005267742 -0.016481267 -0.053381402 0.037835844 0.07412391
-0.08810676 0.10098049 -0.03472396 0.14080419 0.03725678 0.089117415 0.0077715977 -0.09606105
-0.05956075 0.022334035 0.03869851 -0.014908848 -0.07868508 -0.11505814 -0.12649065 -0.07519821
-0.08178832 0.10082258 -0.046058323 -0.13542143 0.027130427 -0.12206176 0.0783183 0.05738079
-0.045087636 -0.020113468 0.12402387 0.04342886 0.05885055 -0.0773801 0.12394857 -0.024510229
-0.05896756 0.11137924 -0.07047322 0.10241331 -0.027628804 0.08163973 -0.08165782 0.08618109
0.017073287 -0.092292905 -0.12929673 0.039439525 0.03612757 0.027035465 0.042158023 -0.052574012
-0.08971168 -0.12988468 -0.03305597 0.0914936 -0.085375465 0.05543386 -0.046875123 0.08049702
-0.09238975 0.106490724 -0.091859095 0.0023960536 -0.123979636 0.02083721 0.14493549 0.039881196
-0.015086666 -0.01701836 0.052876197 -0.121560566 0.12334977 -0.077268146 0.09982519 -0.045433573
00000000: 764d 66bd 065f 54bb 5d39 c3bc bf48 7fbc
00000010: 263d 7cbd 6f8a 553d 44d5 25bd 5dcc 893d
00000020: ae2c 9bbd 061e 063e 7c95 fcbc c86f 12be
00000030: 7f89 0d3e dd86 fbbc c7a3 bfbd 6d69 023e
00000040: 04bb 1bbe d936 d5bd 0a66 b13d d8be 90bc
00000050: 6f2e 67bd e736 89bc 756d 07bd 6f60 8dbd
00000060: 3047 443d 6aba 543c 06aa 1b3e bdc9 42bc
00000070: 6e36 48bc 2c96 aa3d e200 7bbd a603 9f3d
00000080: bf19 be3d 4586 973d bcbc bd3c bdec b8bd
00000090: adde eabb dc63 06bd 52b1 eb3d ece3 c3bd
000000a0: 6c88 94bb 318a 24be 3ea9 803d e3d4 f7bd
000000b0: 76c4 c4bd cc19 46bd b188 f9bd aa60 103e
000000c0: 2e1e a1bd 79c3 8dbc 1777 b13d e63c 1c3e
000000d0: 97e4 3c3d 4dc2 23bd 80ea bb3b 5b7a 89bd
000000e0: f6ed 17be 3ae7 94bd 5f2e d1bd bac3 7fbc
000000f0: 1808 10bd e61c d03c 0f61 fc3d 83d0 f03d
00000100: 84ef 8fbc 0e08 6cbd 0082 47bd d0f2 a5bd
00000110: 974f 37bd ee32 d8bd dba8 f9bc b1cc 16be
00000120: f7bb 0abe ff7e 063e a951 043e d054 f33d
00000130: 6f4c f23d 7f63 2dbd 118e 16ba 2bbc 1f3e
00000140: f567 023e a52e a13c 9bb2 c2bd 1a9c 0c3e
00000150: 6389 233e 6fab 2abb cbd4 13be a190 4b3b
00000160: 7043 cbbd e813 32bc bc25 fc3d 921f c5bd
00000170: 551e d7bd 3d07 053e c8c8 1abe d903 c83d
00000180: 64ee d33d 4864 413d 8f25 f73d 9233 143d
00000190: 772a 4d3c d5b6 6f3d 5c79 e9bc f411 a43d
000001a0: 3638 b8bd 3b55 023e 9ac5 82bd a027 2cbd
000001b0: eb27 083c 1db6 80bd 2c05 5fbc 03fe 973d
000001c0: d804 35bd 2a08 153e 4216 103e 55a7 9e3d
000001d0: cd26 8e3c edb3 82bd 9368 8bbd 3c8f c3bc
000001e0: c7ea 07be 37ac 8cbd 5d15 f7bd 307c 96bb
000001f0: 3c20 0b3e 7959 e1bd 27b6 223d 60ee d43d
00000200: 342f a93d 132f a9bc 7240 613d f966 acbd
00000210: ef26 acbd dc17 853d 7fd7 74bd 30e6 023e
00000220: 99be 0dbd 7fa2 b83d 8fcc b13d f8c3 be3d
00000230: 812b 81bd 2f5a e3bd e20b c83d 7fa6 77bd
00000240: f942 6ebc 2dcd 983b 995a 8abd ea3c febd
00000250: 8d9a ed3d 9f5b e13d 9187 4bbc 5b73 34bd
00000260: b7d2 303c c0a4 293d 4850 afbd aa7e d5bd
00000270: 4038 453d 0068 bfbd 82b0 17ba c5a4 b0bd
00000280: e5e0 313c 4fb8 33bd 0595 193e b78a 5f3d
00000290: ffb8 81bc 22d6 6fbd 75ae ffbd 3b4d a33c
000002a0: 445e c63d 9b7c a93d 5d91 6f3d 2a4e 76bd
000002b0: 507f d63d c8b2 e9bd 8dad 023d 1e83 a63c
000002c0: 997b d1ba f08f 59bd 8cf1 93bd 069d acbb
000002d0: b903 87bc 75a6 5abd c2f9 1a3d 47ce 973d
000002e0: 5171 b4bd dcce ce3d b63a 0ebd f92e 103e
000002f0: 919a 183d 3183 b63d e3a8 fe3b a8bb c4bd
00000300: f9f5 73bd def5 b63c 5482 1e3d 3e44 74bc
00000310: a525 a1bd 9aa3 ebbd c486 01be 8501 9abd
00000320: a280 a7bd 127c ce3d a7a7 3cbd eaab 0abe
00000330: a140 de3c 84fb f9bd 5865 a03d 1f08 6b3d
00000340: d0ad 38bd 00c5 a4bc 3a00 fe3d 76e2 313d
00000350: 460d 713d 7579 9ebd bfd8 fd3d adc9 c8bc
00000360: f887 71bd cd1a e43d 4354 90bd 12be d13d
00000370: cd55 e2bc bb32 a73d 373c a7bd b67f b03d
00000380: 47dd 8b3c 1004 bdbd 5d66 04be 578b 213d
00000390: 81fa 133d 7b79 dd3c e4ad 2c3d d957 57bd
000003a0: c2ba b7bd 7d00 05be b265 07bd ff60 bb3d
000003b0: 55d9 aebd 9d0e 633d 2100 40bd 9fdb a43d
000003c0: d636 bdbd cf17 da3d 9f20 bcbd 1c07 1d3b
000003d0: 09e9 fdbd ccb2 aa3c f869 143e 775a 233d
000003e0: 102e 77bc 166a 8bbc b694 583d bff4 f8bd
000003f0: ce9e fc3d c33e 9ebd 2671 cc3d 8e18 3abd

lstm.bias_ih_l1 f4 [200]
0.0011746971 -0.057025917 0.0016093634 -0.098242685 0.09285563 -0.10700277 -0.08764916 0.07177237
-0.13649677 0.045857634 0.009587516 0.06277513 -0.14974727 -0.07991606 0.08067486 -0.06908996
-0.10495599 0.022064852 0.0644359 -0.15217982 0.011506304 0.09826845 -0.051707923 -0.033423916
-0.036846507 -0.09230823 -0.035157684 -0.048311718 -0.13466407 0.11567073 -0.12107948 0.0196654
0.107892536 0.11280559 0.03689175 0.08928995 0.067276 0.14923872 -0.0721583 0.086767726
-0.03018444 0.053242482 -0.0667267 0.010111805 -0.025131308 -0.11999816 0.104851946 -0.00054612086
-0.07037229 -0.01065828 -0.049947213 -0.05322523 0.10751882 0.122392826 -0.11365505 -0.044187345
0.1058924 -0.05325938 -0.069092125 0.12429831 0.12308538 0.05299684 0.0025078915 -0.06530383
0.13234031 0.084010616 -0.15901329 -0.052443545 0.091523126 0.0486253 0.05710593 -0.079956815
-0.062580325 0.08476551 0.10186134 0.117302515 -0.11644613 0.035610512 0.022739545 -0.025935423
-0.05099793 -0.069929026 0.06634765 -0.046121668 0.15462913 0.1274235 0.065932125 -0.094524644
0.002303196 0.15494768 0.1089788 0.042058073 -0.12441556 -0.08911945 0.099386595 0.03523523
0.036895122 -0.102009095 0.03587923 0.0042945854 -0.06404615 -0.10413608 -0.118097715 -0.087409385
0.11296637 -0.116966955 -0.100621566 -0.010993061 0.1137978 0.052438255 0.036887474 -0.08276417
0.02967037 -0.06953919 0.04017267 0.07304277 -0.09295047 0.099532045 0.06398604 0.11106302
0.08290024 0.08083195 0.12628402 -0.10890592 -0.039412983 -0.11412162 0.13139446 -0.04324874
-0.0693076 0.09609664 -0.11057634 0.04937645 -0.10147508 -0.0925669 0.09565854 -0.014497123
0.064609215 0.12294608 -0.15283978 0.08518121 -0.013302825 -0.08712945 0.028416093 0.09338589
-0.14351405 0.12936544 0.081394106 0.10743693 -0.024247348 -0.050202224 -0.1056459 0.050629154
0.026896207 0.10188787 -0.101268046 -0.13587372 -0.028724317 -0.00695499 0.058008414 0.040134165
0.11060753 0.081234716 -0.08474148 0.09887505 0.12187842 0.026903136 0.031862516 -0.08581656
-0.0752278 -0.07245692 -0.104517 0.007134623 0.10761914 -0.14500953 -0.120230414 0.07310244
0.10552361 -0.07015788 0.12927146 0.08592172 -0.04493153 0.13320702 0.05591718 0.030905196
-0.09752646 -0.079832554 -0.051360253 0.0576459 0.0948687 0.14901343 -0.093490474 0.059859384
0.08194034 0.01571755 -0.13666126 -0.068215124 0.08756795 0.14004238 -0.058650587 -0.09131434
00000000: 4bf8 993a 0294 69bd 46f1 d23a 7633 c9bd
00000010: 182b be3d 4524 dbbd 6781 b3bd 64fd 923d
00000020: cfc5 0bbe 37d5 3b3d f514 1d3c 3f90 803d
00000030: 5957 19be 08ab a3bd dc38 a53d 097f 8dbd
00000040: 2bf3 d6bd 59c1 b43c f8f6 833d 07d5 1bbe
00000050: f084 3c3c f840 c93d b0cb 53bd 84e7 08bd
00000060: 5dec 16bd 190c bdbd 8101 10bd 82e2 45bd
00000070: 61e5 09be c7e4 ec3d 85f8 f7bd 5519 a13c
00000080: c3f6 dc3d 9e06 e73d ce1b 173d a6dd b63d
00000090: 00c8 893d 09d2 183e bbc7 93bd 47b3 b13d
000000a0: 5c45 f7bc ca14 5a3d 02a8 88bd fcab 253c
000000b0: 2ce0 cdbc 98c1 f5bd 9ebc d63d 8d29 0fba
000000c0: 591f 90bd 11a0 2ebc 7395 4cbd b302 5abd
000000d0: d432 dc3d 17a9 fa3d fbc3 e8bd cafd 34bd
000000e0: 1dde d83d 8226 5abd 2c80 8dbd 1d90 fe3d
000000f0: 3014 fc3d 3713 593d 705b 243b 04be 85bd
00000100: 3884 073e c20d ac3d 61d4 22be 0bcf 56bd
00000110: 7a70 bb3d 532b 473d e8e7 693d 66c0 a3bd
00000120: 1d2a 80bd 8a99 ad3d ae9c d03d 4d3c f03d
00000130: 4f7b eebd 54dc 113d 4848 ba3c 8676 d4bc
00000140: 35e3 50bd f336 8fbd 47e1 873d 13ea 3cbd
00000150: 1957 1e3e 4e7b 023e 6c07 873d 2396 c1bd
00000160: 37f1 163b 9baa 1e3e 4730 df3d 1645 2c3d
00000170: 96cd febd 4284 b6bd 338b cb3d d152 103d
00000180: 571f 173d 25ea d0bd 19f6 123d 98b9 8c3b
00000190: a12a 83bd 4c45 d5bd 37dd f1bd b103 b3bd
000001a0: ea5a e73d 5f8c efbd ae12 cebd 3d1c 34bc
000001b0: d20e e93d 7fc9 563d 5217 173d 4380 a9bd
000001c0: 470f f33c 906a 8ebd 198c 243d 7397 953d
000001d0: d15c bebd 75d7 cb3d 1d0b 833d 0275 e33d
000001e0: 9ac7 a93d 398b a53d 9950 013e 110a dfbd
000001f0: 826f 21bd 99b8 e9bd 458c 063e 9725 31bd
00000200: 25f1 8dbd 51ce c43d d975 e2bd f63e 4a3d
00000210: 2bd2 cfbd b793 bdbd a0e8 c33d 5785 6dbc
00000220: d651 843d 28cb fb3d 0882 1cbe 7c73 ae3d
00000230: 18f4 59bc ed70 b2bd dec8 e83c 1a41 bf3d
00000240: 59f5 12be 6078 043e f4b1 a63d e507 dc3d
00000250: 60a2 c6bc d9a0 4dbd e15c d8bd 8460 4f3d
00000260: 6f55 dc3c 96aa d03d 9f65 cfbd 7b22 0bbe
00000270: 424f ebbc afe6 e3bb 3b9a 6d3d b963 243d
00000280: 3386 e23d 635e a63d f18c adbd 017f ca3d
00000290: 659b f93d f763 dc3c 4582 023d 98c0 afbd
000002a0: 0811 9abd 4b64 94bd 020d d6bd 8ec9 e93b
000002b0: 6c67 dc3d 617d 14be 5d3b f6bd bbb6 953d
000002c0: c31c d83d efae 8fbd bd5f 043e baf7 af3d
000002d0: 200a 38bd 6c67 083e 6a09 653d e52c fd3c
000002e0: f4bb c7bd 407f a3bd 215f 52bd 1b1e 6c3d
000002f0: 854a c23d fa96 183e ef77 bfbd 1d2f 753d
00000300: 56d0 a73d 17c2 803c eef0 0bbe 5fb4 8bbd
00000310: d356 b33d 4567 0f3e 993b 70bd 0303 bbbd

lstm.bias_hh_l1 f4 [200]
-0.08507393 -0.12214559 0.051954713 -0.11482164 0.0006315351 -0.08214163 -0.020136753 0.05363576
0.10535326 0.06604062 0.0031678416 0.034444466 -0.009935793 -0.08844301 -0.0043140454 -0.08712831
-0.038402673 -0.12252162 0.0062626577 -0.02050064 -0.027226225 0.015020821 0.024589682 -0.026919268
-0.12519008 -0.06694602 -0.0867078 0.013612392 -0.06814414 0.025488153 0.08965479 0.15405335
-0.03511402 -0.020875836 0.0063976524 -0.040269896 -0.11228011 0.14937688 0.12836099 -0.041756462
-0.08943191 0.101343825 -0.0071827937 0.0069261133 0.016100563 0.14702663 0.078881264 0.12671454
0.11258968 -0.11880355 -0.004175459 0.030946095 0.07512705 -0.09361154 -0.09962995 -0.0286273
0.11439968 -0.02324503 0.006918112 -0.0071783606 -0.06499962 -0.03316458 0.025985446 0.12570415
-0.04744218 -0.06275893 0.0922224 0.018779628 -0.13452467 0.0477813 0.114133954 -0.12836598
-0.011055915 0.12222156 0.09826721 -0.07739035 -0.0025187538 -0.11378432 -0.13932925 0.062158998
-0.039025255 0.039356824 0.016797714 -0.07841588 -0.08075031 -0.09932558 -0.020059327 0.099654146
0.12142561 0.09329448 -0.09857983 -0.053454936 0.071074 0.12541261 -0.05672682 -0.013524832
0.010128444 0.021507781 0.0902132 0.11760818 -0.14605959 -0.025226597 -0.014787337 0.041165974
0.1323357 0.13285197 0.083053306 0.05892695 0.0056764153 0.09120674 -0.08988986 0.06338624
0.060454823 -0.014826293 -0.10439571 0.034484114 -0.060165487 0.09171931 -0.017873697 0.09774129
0.09836726 0.011244735 0.1273142 -0.028131656 -0.07332107 -0.06963677 0.07717749 0.0727076
-0.041943893 -0.13748318 0.040215492 0.08037861 0.10117833 -0.0017882946 -0.03467064 -0.044447295
0.041425984 -0.050689235 0.068790406 -0.0038872173 -0.0014236519 -0.059207894 -0.13131496 -0.10772245
0.08702999 0.017111504 0.09521794 0.15215847 -0.04266499 0.07088057 0.058602948 -0.120512486
-0.0011512142 0.10889879 0.05400125 -0.029592205 0.01355087 -0.06379894 0.122914895 0.111167915
0.021664098 -0.001538523 0.08724882 0.068236664 -0.017715618 0.08813432 -0.10082118 -0.0074675814
-0.044262562 0.021637272 -0.11119896 0.13620068 -0.030240145 -0.1185862 -0.0723902 -0.023995567
0.12971012 0.13463211 -0.07151216 -0.09197048 -0.03627623 0.0077226534 0.11964293 -0.015710058
0.09648119 0.043320056 -0.054334123 -0.08243823 -0.017226756 -0.11046287 0.017045286 -0.12799773
0.04882417 0.009768372 -0.13480647 0.02259648 -0.052139588 -0.04881495 -0.07326242 0.12878418
00000000: 3e3b aebd 7827 fabd 77ce 543d 9c27 ebbd
00000010: 9a8d 253a df39 a8bd d5f5 a4bc 2cb1 5b3d
00000020: 73c3 d73d 4e40 873d 909b 4f3b a415 0d3d
00000030: bcc9 22bc 9c21 b5bd d65c 8dbb 5470 b2bd
00000040: 1f4c 1dbd 9dec fabd fb36 cd3b f5f0 a7bc
00000050: 8809 dfbc e419 763c 4d70 c93c cc85 dcbc
00000060: d431 00be ff1a 89bd dc93 b1bd 8306 5f3c
00000070: 288f 8bbd 88cc d03c ee9c b73d 29c0 1d3e
00000080: b8d3 0fbd cd03 abbc 66a3 d13b 0cf2 24bd
00000090: 1df3 e5bd 41f6 183e 1071 033e d308 2bbd
000000a0: 1428 b7bd 5a8d cf3d a45d ebbb 73f4 e23b
000000b0: 54e5 833c 268e 163e 808c a13d 75c1 013e
000000c0: 6b95 e63d 474f f3bd 4ad2 88bb aa82 fd3c
000000d0: 36dc 993d 68b7 bfbd ca0a ccbd cd83 eabc
000000e0: 614a ea3d 5c6c bebc 54b1 e23b 7438 ebbb
000000f0: 851e 85bd 95d7 07bd 6edf d43c 97b8 003e
00000100: bb52 42bd c187 80bd 19df bc3d bcd7 993c
00000110: d6c0 09be 53b6 433d 10bf e93d 5f72 03be
00000120: de23 35bc 4c4f fa3d 5240 c93d d57e 9ebd
00000130: ad11 25bb c107 e9bd 54ac 0ebe 6f9a 7e3d
00000140: f2d8 1fbd 9f34 213d 5c9b 893c 8198 a0bd
00000150: 6b60 a5bd 366b cbbd 7553 a4bc 7917 cc3d
00000160: fdad f83d 2d11 bf3d 39e4 c9bd 90f3 5abd
00000170: 3f8f 913d 2a6c 003e 625a 68bd 4297 5dbc
00000180: c6f1 253c 1631 b03c b3c1 b83d 8fdc f03d
00000190: a590 15be 02a8 cebc 9646 72bc a79d 283d
000001a0: 0283 073e 590a 083e da17 aa3d 635d 713d
000001b0: 3901 ba3b 99ca ba3d 2d18 b8bd a5d0 813d
000001c0: 7a9f 773d fbe9 72bc 6bcd d5bd 373f 0d3d
000001d0: 1670 76bd 55d7 bb3d dc6b 92bc 962c c83d
000001e0: c674 c93d d63b 383c a75e 023e 5c74 e6bc
000001f0: 5b29 96bd b99d 8ebd 3b0f 9e3d b9e7 943d
00000200: 5ccd 2bbd 64c8 0cbe 00b9 243d 8a9d a43d
00000210: 9636 cf3d 3665 eaba cd02 0ebd 5e0e 36bd
00000220: 4bae 293d 849f 4fbd fce1 8c3d afc0 7ebb
00000230: d599 baba fa83 72bd 6e77 06be 969d dcbd
00000240: c83c b23d 6d2d 8c3c a001 c33d 6ecf 1b3e
00000250: 7cc1 2ebd d529 913d a509 703d 40cf f6bd
00000260: 57e4 96ba 5406 df3d 6a30 5d3d 5a6b f2bc
00000270: 7804 5e3c 05a9 82bd ceba fb3d 01ac e33d
00000280: e878 b13c 44a8 c9ba 82af b23d aabf 8b3d
00000290: 5820 91bc c47f b43d 567b cebd 9db2 f4bb
000002a0: a94c 35bd a640 b13c 48bc e3bd 3178 0b3e
000002b0: 2eba f7bc 52dd f2bd 5041 94bd 5a92 c4bc
000002c0: bbd2 043e 00dd 093e f874 92bd 055b bcbd
000002d0: 6296 14bd 500e fd3b 5a07 f53d 61b2 80bc
000002e0: ee97 c53d 5f70 313d 758d 5ebd 60d5 a8bd
000002f0: 201f 8dbc 5b3a e2bd 8ea2 8b3c d611 03be
00000300: dafb 473d 860b 203c b50a 0abe 411c b93c
00000310: 5290 55bd 2ff2 47bd 9c0a 96bd 00e0 033e

fc.weight f4 [1, 50]
-0.13092844 0.082428776 0.003950776 -0.14670089 0.06045489 -0.0005972002 0.08798868 -0.015683513
-0.052861724 0.096718535 -0.005618085 -0.010747298 -0.090055294 -0.15207298 -0.08013538 -0.09905564
-0.027658617 -0.08775002 -0.026223466 -0.088973776 -0.1179026 0.15089403 0.12553334 0.037339497
0.08181408 0.09894395 0.10132785 -0.06073757 -0.107420266 -0.079941496 0.006278815 0.049201068
0.06035962 0.006464159 -0.093301915 -0.07066897 0.069931716 0.14051911 -0.08795254 0.12954153
0.053613335 0.07675637 -0.024794107 0.11812861 0.025883961 0.1470812 0.09903194 0.08658472
0.0751186 0.13449676
00000000: 1b12 06be 6bd0 a83d 8375 813b c238 16be
00000010: 8c9f 773d 6d8d 1cba 6933 b43d b67a 80bc
00000020: 8985 58bd 5e14 c63d ea17 b8bb 6f15 30bc
00000030: e96e b8bd 05b9 1bbe 051e a4bd afdd cabd
00000040: 5394 e2bc 48b6 b3bd 98d2 d6bc e237 b6bd
00000050: eb76 f1bd f783 1a3e d08b 003e 4df1 183d
00000060: 248e a73d 20a3 ca3d fa84 cf3d f5c7 78bd
00000070: 28ff dbbd 5eb8 a3bd 85be cd3b 0f87 493d
00000080: a63b 773d 4cd1 d33b 1315 bfbd e5ba 90bd
00000090: 5c38 8f3d 3ee4 0f3e 7620 b4bd 89a6 043e
000000a0: a899 5b3d 7232 9d3d 031d cbbc 6aed f13d
000000b0: 9a0a d43c 749c 163e 42d1 ca3d 5453 b13d
000000c0: c8d7 993d 85b9 093e
