src/app/models/GOOGL-best-val_loss=0.0011.ckpt (torch, 396901 bytes, 27 tensors)

lstm.weight_ih_l0 f4 [200, 5]
000000 10 1b eb 3d 60 ec c6 bd e8 c3 b7 bd 30 bd ab bd
       0.11479771 -0.09713054 -0.08972913 -0.08385694
000010 ff f1 6f 3d cf d4 1a bd 7a 97 a9 3b 65 2e 5a 3d
       0.058580395 -0.037800606 0.005175528 0.0532669
000020 e6 d8 6f bb de 9c 06 3e 9e a1 38 bd 8d b2 62 3d
       -0.0036597787 0.13145778 -0.045076005 0.05534606
000030 12 e4 23 3e e3 cc f0 bb 37 bb a3 bd d7 7e ab bd
       0.1600497 -0.007348643 -0.07994693 -0.08373802
000040 d4 c7 c8 3d 7d 18 bc 3b 6c 11 72 3a cc 64 cb bb
       0.09803739 0.005740224 0.00092341634 -0.0062070843
000050 10 f0 b4 bd bf d4 ce 3d 0b 9b 94 bd ff b3 a7 3d
       -0.08834851 0.10099172 -0.072561346 0.081886284
000060 c1 f9 fa 3d 3f 5b be 3d d0 cf d9 3d 26 3f 84 bd
       0.12254668 0.092947476 0.1063534 -0.06457357
000070 00 3e 1e 3d d2 60 bf 3d b1 72 44 3d a0 d4 a2 3d
       0.038633347 0.09344639 0.04796094 0.07950711
000080 a0 4e e2 bd c9 2e 08 3d 68 03 02 bd ef 87 af bd
       -0.11050153 0.033247743 -0.03174153 -0.08570849
000090 b3 4c 6f bd 61 92 52 bd 22 bd 0c 3e 02 ab 6e bd
       -0.058422755 -0.05140913 0.13744023 -0.058268555
0000a0 16 1c 02 3d 29 a9 4d 3c db eb d0 3d f4 a6 6d bd
       0.031765066 0.012552538 0.10201236 -0.058020547
0000b0 21 2a 45 3d ce 68 94 bd 4d 7a 15 3c 9f 58 8d bd
       0.04813588 -0.072465524 0.009123397 -0.06901669
0000c0 30 f1 07 3e 79 83 08 3e a4 02 ef bc 13 6d 16 3e
       0.132756 0.13331403 -0.029176064 0.14690046
0000d0 65 c1 85 bd 52 c3 c2 bd a5 50 e7 3d 84 0d c0 bc
       -0.06531028 -0.09509911 0.112946786 -0.023443945
0000e0 ac a9 b6 bb 99 59 dc 3d fa cb 5b 3d 22 c1 12 3e
       -0.0055744257 0.10759277 0.053661324 0.14331487
0000f0 77 4c 4e 3c 6e 0a b1 3d b9 fd 20 3d 0c c1 f9 3d
       0.012591473 0.086445674 0.03930447 0.12195024
000100 5e b8 2b bd 28 4a 07 3d 90 41 11 3e 70 7d 08 3e
       -0.041923873 0.033029705 0.14185166 0.133291
000110 69 c8 d1 bd 16 98 e9 39 0a 71 fa 3d 45 59 72 3e
       -0.10243303 0.00044554536 0.12228592 0.23666866
000120 12 ea 56 bd 35 69 2a 3e 6d 44 c8 3d de 8a 8f 3c
       -0.05246932 0.16641696 0.09778676 0.017522272
000130 f4 65 1b 3d 48 cc 30 3c 52 d9 01 bc 30 d9 21 3e
       0.037939027 0.010790892 -0.007925348 0.15805507
000140 c1 7c cb 3d c9 36 c9 bd 6d e1 06 3e 8d 5b 0a 3e
       0.09935904 -0.098249026 0.1317193 0.13511486
000150 db 49 f3 bc 31 eb 2b 3e e1 fe b8 3d 32 59 9b 3d
       -0.029698303 0.16788937 0.09032989 0.07585372
000160 8a b4 55 3e 29 3d 42 3d 38 7b 1b 3e 46 92 0e 3d
       0.20869651 0.047421608 0.15183723 0.034807466
000170 0e 84 82 3d 77 4a 1f bc 1e 28 58 3d 11 dc ba 3d
       0.06372844 -0.009722344 0.052772634 0.091240056
000180 7c 4c d2 3d d9 46 9d bd 22 f8 2c bb b4 93 97 bc
       0.102684945 -0.07679529 -0.0026393016 -0.018503048
000190 25 0f d6 bd ef 87 1c 3d 1d 86 f4 bd d9 2b ed 3a
       -0.10452107 0.038215574 -0.119396426 0.0018094733
0001a0 14 a7 46 3d e5 57 99 3d 3c 7d 10 3e ca 61 a8 3b
       0.048499182 0.07487468 0.14110273 0.0051386105
0001b0 6a 39 46 bc da 5f e4 3c ec ff 02 3e ee 21 08 3e
       -0.0120986495 0.027877737 0.12792939 0.13294193
0001c0 2a 6f d1 bd ae 05 df bd 42 f1 ea ba 1b b5 a1 bd
       -0.10226281 -0.10889755 -0.0017924684 -0.07895871
0001d0 93 58 e5 bc 3d 06 79 3d e1 3c 1a 3b 41 6a 21 3e
       -0.027996337 0.060796965 0.0023534822 0.15763189
0001e0 99 82 7a bc 0f a6 87 bd f8 c6 5e bd 4c 4e c1 ba
       -0.015289926 -0.0662347 -0.05438897 -0.0014748066
0001f0 6c 89 01 3e 12 ae 26 3c 0e 55 e5 3d 32 a5 02 3e
       0.12650079 0.0101733375 0.111978635 0.1275833
000200 50 a8 a7 bd f6 4e e9 bc 16 8c 9a 3c 96 db 5d 3c
       -0.081864 -0.028480034 0.018865626 0.013541123
000210 70 8e 1b bd de 26 b4 3d f6 54 93 bd bb f0 a2 3d
       -0.037977636 0.08796476 -0.071939394 0.07956072
000220 1c 67 07 3e 74 aa 11 3d 59 b6 fb 3d 7e c9 63 3d
       0.13222927 0.035562947 0.122906394 0.05561208
000230 14 31 0b 3e b3 0e d6 3d 2e dd 03 bd d7 fe af bd
       0.1359294 0.104520224 -0.032193355 -0.08593529
000240 1f e3 3b 3e 42 c7 ac bd 52 10 09 bd 33 65 3a bd
       0.18348359 -0.08436443 -0.03346283 -0.045506667
000250 2a b3 81 bd 79 92 22 3d 6f 56 4f bd c3 05 88 3d
       -0.06333001 0.03969047 -0.05061954 0.06641724
000260 53 f4 90 bd e9 f6 20 3e 8c e6 67 bd 68 0b 88 bd
       -0.07077851 0.15719189 -0.05661635 -0.066428006
000270 20 78 d8 bd 17 84 3b 3e 4d 1e 29 3e 0d 4c 2f bc
       -0.10569787 0.18312107 0.16515465 -0.010699284
000280 7b 47 d9 3d 5f 88 4e bc 64 5c 21 3e 5e 10 07 3e
       0.10609337 -0.012605756 0.157579 0.13189837
000290 db 6b f4 3d 8e f4 28 3e 34 e9 2d 3d be 30 a4 bd
       0.11934634 0.1649954 0.042458728 -0.08017109
0002a0 af 42 42 3d 87 ec a1 bd 91 64 b7 3d 14 f5 dd bd
       0.047426876 -0.07906442 0.089547284 -0.108377606
0002b0 b9 10 97 bd fd 7d 27 3d aa 7f 64 bd 49 22 f1 bc
       -0.073762365 0.040891636 -0.055785812 -0.029435294
0002c0 74 01 e4 bc f9 6f 65 bc 88 15 34 3e 5f 11 2d 3e
       -0.027832724 -0.014003747 0.17586339 0.16901158
0002d0 0f 9e 07 bd 68 e9 48 3d ed e4 04 3e 53 02 73 3d
       -0.03310972 0.04905072 0.12977953 0.05932839
0002e0 a4 5f f1 3c 95 a2 55 3d 0c b9 0e 3d 8e 9f 7c 3d
       0.02946455 0.052157003 0.034844443 0.0616756
0002f0 cf f5 e3 3d 8b 9b 1e 3e 78 a3 6f 3d 5a 20 5d bd
       0.11130869 0.15489022 0.058505505 -0.05398593
000300 e2 a1 d1 3d 55 ff f1 3d f9 05 01 3e d7 5e f8 3d
       0.10235955 0.11816279 0.12599935 0.12127464
000310 5f 9d fa bc 2c 08 76 bd 71 55 75 3c 80 59 2e 3e
       -0.030592619 -0.060066387 0.014973984 0.17026329
000320 e1 8d 3f bd bb 4e b0 3d 0f 56 03 3d 12 e6 f3 bc
       -0.046766166 0.08608767 0.032064494 -0.029772792
000330 6f b7 2a 3d 8d de d5 3d 00 82 21 3e 9f b8 6a bd
       0.041678842 0.10442839 0.15772247 -0.057304975
000340 43 ec 35 3c 61 94 6d bd aa 7e 49 3e 99 ec 9e 3d
       0.011103692 -0.058002833 0.19677225 0.07759971
000350 67 2f 9b bd 81 32 a4 bd 22 28 c0 3d ef 38 ad bd
       -0.07577401 -0.08017445 0.09382655 -0.08458125
000360 7a 65 ee bd 2c 5a ce bd af 23 5e bd 6a 41 a3 bd
       -0.11640449 -0.10075793 -0.05423325 -0.07971461
000370 84 8b fb 3d ef 1f ff bc 5a af 20 3e 01 14 e6 3d
       0.1228247 -0.031143157 0.15691891 0.11234284
000380 f3 83 26 3e 0f c5 04 bd b3 d0 44 bb 34 a4 ad 3d
       0.16261272 -0.032414492 -0.003003162 0.08478585
000390 03 23 12 bb ce 20 9c 3d e8 5c 0e 3e c5 9b 1d 3e
       -0.00222987 0.076234445 0.13902628 0.15391453
0003a0 6b 73 58 bc f7 b5 46 3e cf f7 8b 3d 65 c4 80 3c
       -0.013211112 0.19405352 0.06834375 0.015718648
0003b0 f7 c7 0d 3d 86 c6 61 bd d7 63 3a 3e 90 89 fc 3d
       0.03461453 -0.055120967 0.18202148 0.123309255
0003c0 62 19 d0 3b 19 f6 a1 3c c5 9d 54 3e 77 1f c9 3d
       0.006350682 0.019770669 0.2076331 0.098204546
0003d0 da 10 45 3e 58 49 e8 3d dc 97 02 be 88 ed b2 3d
       0.1924471 0.11342114 -0.12753242 0.08736712
0003e0 ef 03 0b 3e b6 93 20 3e 31 47 a7 3c c4 d2 11 3d
       0.1357572 0.15681347 0.020419689 0.035601392
0003f0 06 c8 bb bd 69 3a df 3d be 81 c5 bd 94 54 ef 3d
       -0.09169011 0.10899813 -0.09643887 0.11686054

lstm.weight_hh_l0 f4 [200, 50]
000000 ed a2 01 3e df 86 41 3d 19 45 89 3d b5 ef 87 3a
       0.12659808 0.047247764 0.067026325 0.0010371121
000010 13 f8 29 3b 13 56 29 3c bc 48 a8 bc 00 0d 0f 3d
       0.0025935217 0.010335463 -0.020542495 0.034924507
000020 1b 2d 15 bd b2 c0 98 3c 6b 8b 89 bd bb 67 f6 3d
       -0.03641997 0.018646572 -0.06716045 0.12031504
000030 b2 25 b9 bd c0 c6 bc bd d3 80 86 3d 5e e7 1c 3d
       -0.09040393 -0.09217596 0.0656754 0.038306586
000040 36 f2 00 3e a7 15 0a 3c de 5a 46 bd 5c 3c f2 3c
       0.12592396 0.008428014 -0.0484265 0.029569797
000050 4f 6f a8 3d e5 b0 28 be 20 73 14 3e 9a ae 0e 3e
       0.082243554 -0.1647373 0.14497042 0.13933793
000060 d3 10 8d 3d 24 5c 00 3d 2e 8d f0 bd 6b 61 b8 bc
       0.068879746 0.031337872 -0.11745678 -0.02250739
000070 e9 d0 0a bd 9a 75 a2 ba 85 7d 05 3d fb fa d7 bc
       -0.03389064 -0.0012394667 0.032590408 -0.026364794
000080 e5 85 4a bd 37 30 2a 3d eb ec ab 3c fc 23 81 bd
       -0.049444098 0.041549888 0.020986995 -0.063056916
000090 cb 72 7d ba 8c c0 23 3e 56 91 09 bd 55 ee 9a bc
       -0.00096682896 0.1599142 -0.03358587 -0.018912474
0000a0 51 77 b8 3c f7 86 3f bd d4 41 da 3d e0 67 77 bd
       0.022517832 -0.046759572 0.10657087 -0.060401797
0000b0 c9 22 09 3b fb 51 e8 3d f6 4b 76 3d e2 e2 dd 3d
       0.0020925275 0.113437615 0.060131036 0.1083429
0000c0 f6 99 65 3d 73 5a d5 3d e6 5a 24 3e e4 08 9c 3c
       0.05605503 0.104176424 0.160503 0.019047208
0000d0 ef 0d 00 3e 94 91 d4 bd 42 ce 92 bd 38 dd f8 bc
       0.12505315 -0.10379329 -0.07168247 -0.030378923
0000e0 89 62 2e 3c ed 10 1b 3e b8 df b0 3d d7 4c 7d 3d
       0.01064361 0.15143175 0.08636421 0.06184086
0000f0 f3 fa 30 bd d0 a4 16 3c 02 d9 6b bc 3f 2b de bd
       -0.043208074 0.009194568 -0.014395 -0.10848092
000100 20 a8 e1 bd e9 1e 24 3d 58 63 b7 bd 2b fc 2e bd
       -0.110183954 0.04006854 -0.08954495 -0.042720955
000110 36 01 df bd 5a 00 8f 3d c9 55 e8 3d d1 1a c8 3d
       -0.10888903 0.06982489 0.11344487 0.0977074
000120 8e 36 27 bd 56 61 6c 3c 0c e2 d6 3d 96 70 9d bd
       -0.04082351 0.014427504 0.10492334 -0.0768749
000130 21 c8 63 3d 68 63 81 3d f6 b0 20 bd 71 b8 eb bd
       0.05561078 0.06317788 -0.039231263 -0.11509789
000140 2e 80 db bd 43 35 dc bd 3e 83 8a 3d e0 e1 36 bd
       -0.10717808 -0.10752346 0.06763314 -0.044649005
000150 fb c2 af bc 71 40 fa bb 9c 35 e2 3d 91 39 f5 bc
       -0.021455279 -0.0076370765 0.110453814 -0.029934676
000160 c0 d0 05 bd e4 fb ad 3d c6 d9 fb 3d 11 5d c7 bd
       -0.032669783 0.0849531 0.12297396 -0.09734548
000170 11 2a f2 3c 31 ec ea bd 2a b8 96 bc 0c a2 5f bd
       0.029561074 -0.11470831 -0.018398363 -0.0545979
000180 35 9d 9f 3d f4 9f da bd 61 26 8b 3d 9e 81 06 bd
       0.07793657 -0.1067504 0.067944296 -0.032838456
000190 78 f9 0d 3e 1a bc c0 bd 76 6d a4 bd ef df 00 3e
       0.13864696 -0.094108775 -0.080286905 0.12585424
0001a0 59 a4 c0 3d f0 6f c7 3d 24 7d a7 3d 0e a5 d6 bc
       0.09406347 0.09738147 0.081781656 -0.026201751
0001b0 4c f7 a6 bd 76 58 b8 bd 1c 60 0c be d5 b4 a2 bd
       -0.08152637 -0.090012476 -0.13708538 -0.07944647
0001c0 25 2f a1 3d 02 c8 f0 bb 2b 13 1c 3e f7 4f 25 bd
       0.0787032 -0.0073480615 0.15241687 -0.040359464
0001d0 50 9a 02 3d 5c b6 e7 bd 0e 83 d2 bd a1 ab dc 3c
       0.031885445 -0.11314079 -0.10278903 0.026937308
0001e0 b2 34 09 3e 25 22 d3 bd 79 2a 9d 3b fa d2 12 3e
       0.13399008 -0.10309247 0.004796323 0.14338294
0001f0 0c 9f 04 3e ea be 2e 3d 27 1d d1 bd ad 9b f4 bc
       0.12951297 0.04266254 -0.102106385 -0.029859388
000200 08 13 49 3a c5 73 f2 3d df a5 05 be 16 01 a4 3d
       0.00076703774 0.118384875 -0.13051556 0.080080196
000210 20 9a 0c 3d fd 39 bc 3c b9 77 98 3c 6b 73 d7 3d
       0.034326673 0.02297687 0.018611776 0.10520061
000220 e6 ea 0b 3b c9 ba 48 3d 13 f9 e9 3d c7 cf 02 3e
       0.0021349727 0.049006257 0.1142446 0.12774573
000230 38 7a 49 bd 56 f2 e1 3d 94 d7 1b 3e 4b 2f 5a 3d
       -0.049188823 0.1103255 0.15218955 0.05326776
000240 b4 c4 ad 3d 05 c8 6a 3d 88 c1 ec 3d e4 8e 70 3d
       0.08484784 0.05731966 0.11560351 0.05873002
000250 e8 e1 cd bd 67 89 05 3d b1 06 f8 bd 5a fa b4 3d
       -0.10052854 0.03260174 -0.12110651 0.08836813
000260 72 e4 5b 3c 9f 26 9f bd d2 27 86 3c 6c 4c 8c bc
       0.013421165 -0.07771038 0.01637641 -0.017126285
000270 7f 64 12 bd dc f7 ce 3d eb 17 32 be 4e a6 08 3e
       -0.03574037 0.10105869 -0.17391936 0.1334469
000280 92 2c e5 bd 9f c4 83 3d 21 96 ae 3b 4f 86 b9 bc
       -0.11190142 0.06433987 0.0053279554 -0.022647051
000290 3c 33 1f 3e 88 46 1a 3e ab e2 0f 3e d5 36 9c 3d
       0.15546888 0.15065968 0.1405131 0.07627646
0002a0 67 e2 c0 bc 1c 1f 29 be b1 48 f1 bc 5c 95 86 3c
       -0.023545457 -0.16515774 -0.029453607 0.016428642
0002b0 99 53 af 3c f0 99 26 3d 76 98 cf 3d d6 56 23 3e
       0.021402167 0.04067415 0.101365015 0.15951094
0002c0 09 dc 9a bd 8e f8 4e bd 57 05 be 3d 48 f7 16 3e
       -0.075614996 -0.05053001 0.09278362 0.14742768
0002d0 c4 4e 26 3c 26 27 9e bc 1f d0 dd 3c d8 73 df bd
       0.010150615 -0.019305777 0.027076779 -0.10910767
0002e0 71 65 17 3e c6 40 3e 3d e0 0f 29 be 1c bb 2b 3e
       0.1478479 0.04644849 -0.16509962 0.16770595
0002f0 dd a1 e9 3a 45 8e 15 3e f2 30 aa bd 63 48 cd bd
       0.0017824728 0.14605053 -0.08310117 -0.10023572
000300 44 48 0e 3e 7d f8 5d bd b0 b3 a7 3c 61 d7 d9 bc
       0.13894755 -0.054192055 0.020471424 -0.026591958
000310 44 66 4d 3c a1 28 b0 bc 67 97 63 bc 77 17 93 bd
       0.012536589 -0.021503748 -0.013891078 -0.0718221
000320 d9 fd 09 bd b2 de f0 3d 7b 20 b0 bd 4f 52 cc 3c
       -0.033689354 0.11761226 -0.08599945 0.024941592
000330 01 d9 04 be 9f 1e f4 3d 34 78 ff bd ac d3 24 bd
       -0.12973405 0.11919903 -0.12474099 -0.04024093
000340 9b 05 fa bc eb 42 da bd 7f 62 34 bd 11 85 fe 3d
       -0.030520251 -0.10657295 -0.044039246 0.12427724
000350 d5 15 54 3c a8 64 79 3d e3 b5 86 3d 32 ee e1 3c
       0.012944658 0.06088701 0.06577661 0.0275794
000360 54 d1 58 bd 7f 9a 18 3e b3 f7 c0 3d a1 4f e7 bd
       -0.052934006 0.14902686 0.09422245 -0.11294485
000370 59 35 13 bd c9 3d 05 3e e0 cc f9 bd 92 08 fe 3d
       -0.03593955 0.1301185 -0.1219728 0.124039784
000380 91 dd a8 3d 9b 59 a3 bd 82 6f 96 bd 5b 57 41 3c
       0.082453854 -0.07976075 -0.07345487 0.011800612
000390 a2 0e 21 bd 7d 3f 30 be 93 f8 fa 3d 96 31 e6 bc
       -0.039320596 -0.17211719 0.12254443 -0.028099816
0003a0 01 85 81 3d 5d e5 d4 3d 1f 64 56 3c f3 43 9b bd
       0.063241966 0.1039531 0.013085394 -0.0758132
0003b0 ec 04 b0 bd df 11 d8 3a 69 83 06 3e 94 52 0a be
       -0.08594689 0.0016484818 0.13136066 -0.13508064
0003c0 cc 01 aa bd d4 28 bc bd ad 68 79 3d b9 3f 0e be
       -0.08301124 -0.09187475 0.060890842 -0.13891496
0003d0 b0 91 b1 3d 4b 26 8c bd c0 9e 1a bc 39 98 a7 3d
       0.08670366 -0.06843241 -0.009437263 0.08183331
0003e0 f5 57 4f bd 7f 04 5f bd 8c 68 9d bd 13 8a 7e bc
       -0.05062099 -0.054447647 -0.07685956 -0.015535849
0003f0 2b 61 2f 3b ff 0b 35 bb 82 46 be bd 0c e9 0b 3e
       0.0026760797 -0.0027625558 -0.09290792 0.13663119

lstm.bias_ih_l0 f4 [200]
000000 c2 91 8c 3d 37 e3 4d 3d da 8c 4e bd a0 ea 02 bd
       0.068637386 0.050265517 -0.050427295 -0.031962037
000010 76 9f d2 bc 25 0c ac 3d cf 62 c0 bd b9 20 cc bd
       -0.025710803 0.08400754 -0.09393846 -0.09967179
000020 86 b4 12 3e 0c b2 16 3e ea 57 e5 bd 8b 85 86 3a
       0.14326677 0.14716357 -0.11198409 0.0010263188
000030 f2 5d bb bc b9 34 07 be 0c b2 01 3e bc b5 2a 3e
       -0.022871945 -0.13203706 0.12665576 0.16670889
000040 c7 5d ea 3c fc 24 d4 bc 43 81 03 bd bf fa 21 3d
       0.02860917 -0.025896542 -0.032105695 0.03954577
000050 2b f7 f5 3d 90 c0 24 3d 17 10 82 bc 0c e1 11 3d
       0.12010034 0.040222704 -0.015876813 0.035615012
000060 a9 3e 21 3e 2c 9e ca 3d c9 e8 cd 3d 25 c1 cd 3d
       0.15746559 0.0989345 0.10054166 0.10046605
000070 41 03 93 3d 8d 88 59 3d 0b bd 60 bd d4 11 e1 bc
       0.07178355 0.05310874 -0.054867785 -0.027474321
000080 b6 79 02 3e 95 6a c7 bd f4 ec b3 bc 2d f3 8a 3d
       0.12741742 -0.09737126 -0.021963574 0.06784663
000090 8b 79 9c 3d 7a e9 0a 3e b2 5f fd bd 1d 87 9f 3d
       0.0764037 0.13565627 -0.12371768 0.07789443
0000a0 bf 66 bb 3d 17 f2 ad bd 55 1b 13 3e 1b bd 28 3d
       0.09150457 -0.084934406 0.14365895 0.04119597
0000b0 61 07 02 3e b6 3e 05 3e 98 3a a8 bd e6 ac 08 3d
       0.12698127 0.13012204 -0.08214301 0.033368014
0000c0 2d e2 b7 3d 58 6c 71 bd 0b 46 01 3e 17 e8 b9 bd
       0.089786865 -0.058941215 0.12624376 -0.09077471
0000d0 21 e9 97 bd 7f 37 70 3d 51 35 84 3d 0a 14 dc bd
       -0.07417513 0.058646675 0.06455482 -0.1074601
0000e0 dd b9 d7 bd c5 c8 67 bb e3 f2 06 3e 21 9a ba 3d
       -0.105334975 -0.003536747 0.13178591 0.09111429
0000f0 6e 2e 63 bd 2d 63 f7 3b f1 43 aa ba 79 c0 ab 3d
       -0.0554642 0.0075496645 -0.0012990219 0.083863206
000100 57 c0 a6 3c 5e c7 fa 3d 16 14 91 39 74 9a de bb
       0.020355387 0.122450575 0.0002767152 -0.0067933146
000110 38 c4 b3 bd 2a 83 f4 3d e8 d7 04 bd 4a 56 84 3d
       -0.0877766 0.1193908 -0.032432467 0.06461771
000120 14 6f 14 3d 94 d0 70 3d c5 53 c1 3d 34 d3 d2 3d
       0.036238745 0.058792666 0.09439806 0.1029419
000130 47 8c ff bd 4d 8e 6f bd 90 83 c6 3d a8 b8 30 bd
       -0.12477928 -0.058485318 0.09693062 -0.043144852
000140 f6 d8 3f 3c ff 49 f6 3d ff 35 0f 3c 81 db d1 bc
       0.011709442 0.120258324 0.008740901 -0.025617363
000150 55 c6 7b bc fc e1 a2 bd 8c 78 ef bc 79 b7 a0 3b
       -0.01536711 -0.07953259 -0.029232286 0.004904684
000160 7e bd 4f 3d 6c e8 06 be 0e f1 9c bd 56 ca 08 be
       0.050717823 -0.131746 -0.07663165 -0.13358435
000170 d8 fe 6c 3d 50 15 df bd 24 1b ca bc 04 75 2f 3d
       0.057860225 -0.10892737 -0.024671145 0.042836204
000180 27 21 0d 3e 64 fa 26 bd 5d 9f b8 3d 81 c6 93 bd
       0.13782178 -0.040766135 0.09014771 -0.07215596
000190 e3 c0 23 3b 69 90 2b bd 0d d7 83 bd 71 a0 d4 bd
       0.0024986796 -0.041885767 -0.06437502 -0.10382164
0001a0 4a 8e af bd 2c 46 ef 3c e0 2f 17 bc c9 72 75 3d
       -0.08572061 0.029208265 -0.009227723 0.05992392
0001b0 e7 70 fd 3c 57 e9 f6 bb 6b 00 55 bb 43 28 b6 3c
       0.030937625 -0.0075351405 -0.003250147 0.022235995
0001c0 0c fd af bd 51 ce cf 3d bc 41 c7 bb 3a 74 5d bd
       -0.08593187 0.101467736 -0.006080834 -0.05406592
0001d0 4c 57 04 be 54 9c 98 bd 26 b4 ac bd 66 20 65 bd
       -0.12923926 -0.07451692 -0.08432798 -0.0559391
0001e0 0c 74 10 be 7b 33 35 bc 0c 37 33 3d 80 18 08 bd
       -0.14106768 -0.011059637 0.04375367 -0.03322649
0001f0 a6 8a cb bd 92 3a 45 3d 83 1b db 3d 36 4f 45 bd
       -0.099385545 0.04815156 0.10698607 -0.048171245
000200 fe 8f 94 bc d9 55 cc bd 1d fa a2 bc 19 6b 80 bc
       -0.018135067 -0.09977312 -0.019894654 -0.015676068
000210 ff 2b 20 be 7c 18 04 be eb 66 c2 3d 21 c3 0a 3d
       -0.15641783 -0.12899965 0.09492286 0.033877496
000220 61 05 e4 3d 38 69 c7 3d 93 b4 ca bd 65 f3 04 3d
       0.111338384 0.09736866 -0.09897723 0.03245868
000230 76 69 ae 3b 8d b0 49 3d a5 c3 1e bd 25 5c c3 bd
       0.0053226305 0.049240638 -0.0387608 -0.095390595
000240 f3 43 c2 bd 0c f8 13 3e 45 d6 8f 3d 6d 0f 1f 3d
       -0.094856165 0.14450091 0.070232905 0.03883307
000250 40 e9 0a 3e 58 50 7c bd 03 3a 0b 3e 77 dd 3e bd
       0.1356554 -0.06160006 0.13596348 -0.046597924
000260 00 7c 09 3d 03 80 9a bc 5c 0a 2b bd a4 0b 8b ba
       0.03356552 -0.018859869 -0.041757926 -0.0010608328
000270 52 56 cf 3d ca 41 0c be 77 97 f1 3d 3d a8 ff 3d
       0.10123886 -0.13696972 0.11796468 0.12483261
000280 89 f3 93 3d 80 96 b1 bd 50 bd 82 3d 48 58 57 3d
       0.07224185 -0.08671284 0.06383765 0.052574426
000290 2a 15 c9 3d 99 01 2d bd f7 ae 11 3e 85 f5 a1 3b
       0.0981849 -0.04223785 0.142269 0.0049425983
0002a0 a6 96 fd bc 79 8c 9c 3d e1 6a 26 bb 8b 3c 39 bc
       -0.030955624 0.076439805 -0.0025393295 -0.0113059385
0002b0 78 bd 2c bd 91 e5 9d bc 3f 78 d9 3d e6 f1 95 3d
       -0.04217288 -0.019274505 0.10618638 0.07321529
0002c0 c0 7a b3 bd 43 2b 1d 3d 55 cc b9 bc 48 95 b3 bc
       -0.08763647 0.038371336 -0.02268044 -0.021921769
0002d0 0a fc 73 bc c7 e1 bf 3d a9 d5 86 bd d4 80 40 3d
       -0.014891634 0.093692355 -0.06583721 0.04699786
0002e0 27 9e 5f bd e8 b1 40 3e 69 f1 f2 3c eb dc d2 3d
       -0.054594185 0.18817866 0.029656129 0.10296043
0002f0 33 dc 95 bd 85 65 0c 3e 67 c2 e5 3d dd 8a 00 bd
       -0.0731739 0.13710602 0.1121872 -0.03138243
000300 11 ec a3 bc 08 01 ec bc fa d6 ce ba b2 1d 17 3e
       -0.020010026 -0.028809085 -0.0015780621 0.14757422
000310 30 1e 8f bd de a4 0e 3e c3 2f f4 3d c0 68 b8 3d
       -0.0698818 0.1393008 0.11923172 0.090043545

lstm.bias_hh_l0 f4 [200]
000000 11 ca 3c 3d 59 12 c8 bd a1 c4 68 3d 8a 92 3b 3e
       0.046091143 -0.097691245 0.056828145 0.18317619
000010 e5 61 39 3c 0d d6 05 be 04 a3 14 3e b0 40 83 3d
       0.011314844 -0.13069935 0.1451531 0.064088225
000020 e5 43 6a 3d aa 23 aa bd 90 5f 65 bd 6a 04 10 3e
       0.057193656 -0.08307584 -0.05599934 0.14064184
000030 6f ce 5b bd 63 9f cd bd 5b 5e 36 bd 42 50 76 bc
       -0.053663667 -0.10040166 -0.044523578 -0.015033783
000040 5d 82 1d 3e 19 d9 5f 3d de 68 d6 bd 43 b1 40 3c
       0.15381761 0.0546504 -0.104692206 0.0117610125
000050 c3 b3 37 bd 62 9f b2 bd c4 fc 16 3c 40 1e 33 bd
       -0.04484917 -0.08721806 0.009215537 -0.04373002
000060 1f e2 d9 bd e6 64 aa 3d 29 c9 d1 bd 2f 3a 86 bc
       -0.10638832 0.08320026 -0.102434464 -0.016385166
000070 37 8e c4 bd 22 48 a8 bd e1 01 e2 bc ac 1b 18 3d
       -0.09597438 -0.08216883 -0.027588787 0.037135765
000080 6e b5 ac bd f7 23 71 3d 88 f6 10 3e c2 ba cd 3d
       -0.084330425 0.05887219 0.14156544 0.10045387
000090 8b 94 8a bc 69 dc 08 bb c7 08 6f 3d d9 f1 39 3d
       -0.016916534 -0.0020883328 0.05835798 0.04539666
0000a0 6b 79 dd 3d 17 c3 9d bd 0a d6 b1 bc 7e b1 f5 bd
       0.10814174 -0.07703226 -0.021708507 -0.119967446
0000b0 39 b0 e8 3d 63 35 f1 3b 5a ac 86 bd 7c d7 6e bd
       0.11361737 0.0073611005 -0.06575842 -0.05831097
0000c0 f9 7b 17 bd 91 69 a6 bb 5d dc 0f 3e b3 8c 90 3d
       -0.036983464 -0.0050785025 0.14048906 0.07058086
0000d0 cb 7b be bc cf 27 b8 3c 7e bd 89 bd fa 6f 6d 3d
       -0.023252388 0.02247992 -0.06725596 0.057968117
0000e0 6d c5 f5 3c 37 2a 96 bd 65 e3 ce bb d5 43 89 3d
       0.030001367 -0.073322706 -0.0063137286 0.06702391
0000f0 fd 19 92 bd ae 91 81 3b ef bf 17 bd f9 08 10 be
       -0.07133863 0.003954134 -0.037048277 -0.14065923
000100 58 d7 69 bd e0 11 9f 3d 60 f8 e9 3c f4 2d 05 3e
       -0.057090133 0.07767081 0.028560817 0.13005811
000110 7d 32 6f 3d 6a 95 e9 bd a1 55 d3 3d 0a 7f e2 3d
       0.05839776 -0.114054516 0.10319067 0.11059387
000120 f5 77 b1 3c e6 45 6e 3d 25 56 b0 3d cc c6 cc 3d
       0.021663645 0.05817213 0.08610181 0.09998855
000130 be 99 17 3d c5 73 80 3c 52 54 e6 3c 3c c0 b3 bc
       0.037011854 0.015680203 0.028116379 -0.02194225
000140 9a eb b6 bd 65 cf 15 3e fc 65 1b bd 4d 8f 2e 3d
       -0.08931656 0.14629896 -0.037939057 0.04261713
000150 fd f0 91 bd 4b 9d 9e 3c 7a c0 e0 bd ed 0a dc bc
       -0.07126043 0.019362113 -0.10974212 -0.026860679
000160 95 70 9e 3d 8c c2 90 bd 52 c2 83 3d 0b 93 cc 3d
       0.07736317 -0.07068357 0.06433548 0.09988984
000170 c6 26 15 bd 90 24 99 bb 14 07 c2 3c 62 0b 21 bd
       -0.03641393 -0.004673548 0.023685016 -0.039317496
000180 f4 07 e7 bd 11 e2 c3 3d c3 16 fb 3d 3a eb 94 bd
       -0.11280814 0.09564603 0.12260201 -0.072714284
000190 62 f8 0a be d5 93 09 3e c6 ee 36 bd 5d a5 bf 3d
       -0.13571313 0.134353 -0.044661306 0.093577124
0001a0 59 29 15 be 68 f1 95 3d b5 2b 0d 3e 77 d3 08 bd
       -0.14566554 0.07321435 0.13786204 -0.033404794
0001b0 f4 ac 13 be c2 76 38 3d 67 9e 86 bd 74 8a 0b 3e
       -0.14421445 0.04503513 -0.065731816 0.13627034
0001c0 5c 45 d2 3d d9 42 0e be 55 6e e7 3d a1 2a 2e bc
       0.102671355 -0.13892688 0.11300341 -0.010630281
0001d0 74 d1 7c bc 03 97 ea bc 4a d3 a5 bc a3 bb 9f 3c
       -0.015430797 -0.028636461 -0.020242352 0.019498652
0001e0 b3 66 e4 bd bf 46 6d bd 58 36 2d 3d 9d 35 52 3d
       -0.11152401 -0.057928797 0.042288154 0.05132066
0001f0 fc d9 ba 3d 47 e5 c3 3d 7f 95 82 bc f4 28 cf bd
       0.091236085 0.095652156 -0.015940426 -0.10115233
000200 5a f3 9f 3d b9 2a 24 3e f6 6d bb 3d 37 d3 d1 bd
       0.078100875 0.16031922 0.09151833 -0.10245364
000210 93 3e 76 3d 26 95 f6 3d 64 08 4f bc 25 12 c0 3d
       0.06011827 0.120401666 -0.012636278 0.09378461
000220 21 43 8e bd 1c 2f 81 3d ab 6a 93 3d b8 6a 1a 3c
       -0.069463976 0.063078135 0.0719808 0.009424858
000230 25 e2 ec bc d3 97 dd bd 0d 24 e0 3d 76 3a ec 39
       -0.028916428 -0.10819974 0.10944376 0.00045056985
000240 09 99 26 3d 6b aa e3 bd 24 96 3d 3d 4b fe a9 ba
       0.04067329 -0.11116489 0.046285763 -0.0012969462
000250 27 48 ba bd 8c ae 5f bd 1b eb 92 3b f5 b9 02 3d
       -0.09095793 -0.05460982 0.004483593 0.031915624
000260 90 6c 76 3d c1 4b 3e 3e 09 85 ca bc f4 c1 3d bd
       0.060162127 0.18583585 -0.02472164 -0.046327546
000270 04 98 9c 3d ad 70 08 bc bd 4c a7 bd 56 6f cf 3d
       0.07646182 -0.008327645 -0.081689335 0.101286575
000280 a4 a2 fe 3d 5a 4d db 3d a6 0c 0f 3d 53 66 cc 3d
       0.12433365 0.10708113 0.034924172 0.09980454
000290 70 77 aa bd c9 a5 fd bb d9 7e d6 3d 46 7a 1f 3e
       -0.08323562 -0.0077407104 0.10473413 0.15573987
0002a0 ae 76 ae bc 71 d7 0e 3e 66 61 e1 bd 37 b6 22 3d
       -0.021296825 0.13949372 -0.110049054 0.039724555
0002b0 fa 28 0e 3d 3f 3c b5 3b 2c d4 03 3e ed 80 88 bd
       0.034707047 0.0055308635 0.12873906 -0.06665216
0002c0 89 c8 ef 3c 68 e1 ec 3d 82 1a cf bd fa df 07 3e
       0.029270427 0.1156643 -0.10112478 0.13269034
0002d0 00 70 37 3d 7d 0e c9 3c 35 46 6f 3d dd c4 e2 bd
       0.044784546 0.024543041 0.058416564 -0.11072705
0002e0 5e 7e de bd cd 41 f6 3d f7 81 c9 bc 6d 8e f0 bd
       -0.108639464 0.12024269 -0.024598105 -0.117459156
0002f0 fb 6a 8a bd 24 71 b8 3c 84 52 31 bd c3 9a 09 bd
       -0.06758686 0.022514887 -0.043291584 -0.033594858
000300 b5 d3 b6 3d 96 a8 3c 3d 61 03 93 bd bd 72 bd 3d
       0.08927099 0.046059214 -0.07178379 0.092504
000310 f9 f7 31 3d 55 91 03 3e f4 d8 37 bd 79 9b cb bd
       0.043449376 0.12848409 -0.044884637 -0.099417634

lstm.weight_ih_l1 f4 [200, 50]
000000 28 1c 11 3e 23 52 92 bd 60 fd 91 3d e2 f8 a7 bc
       0.14170897 -0.071445726 0.071284056 -0.020504419
000010 07 a8 e6 3c 01 54 21 3e f0 d9 d7 3d a3 2c 6c bd
       0.028156294 0.15754701 0.10539615 -0.057659756
000020 b9 15 dd bd 2a 0d f6 3d 46 dd 2c bd fe 72 f0 3c
       -0.10795159 0.120142296 -0.04220321 0.029351708
000030 23 0f 93 3d 74 fc a3 bc 6b 61 0e 3d 3a 25 e5 3b
       0.071806215 -0.02001784 0.034760874 0.006992963
000040 33 5d 25 3e b2 1f de 3d 34 7d d0 3d 50 9d 49 bd
       0.16148834 0.10845889 0.101801306 -0.04922229
000050 f5 fe e3 bd a4 c4 f3 3b 8f e8 ce bd 38 7d 24 3e
       -0.111326136 0.007439213 -0.10102951 0.16063392
000060 e9 1b 8a bc b3 a6 0f 3e 8a 95 15 3e 19 9e 4a 3c
       -0.016859012 0.14028434 0.14607826 0.012366795
000070 7d 06 08 3e 9b 91 9a 3d 43 cb c2 bd 7a 36 ae 3d
       0.13283725 0.07547303 -0.09511425 0.08506484
000080 aa b3 16 3c df 66 8f bd ca 0e e1 bd ef ee 03 be
       0.009198109 -0.07002043 -0.10989149 -0.12884115
000090 a5 97 93 3d 45 70 e9 3c 16 8f e8 3d 8c 7d 09 3e
       0.07206658 0.028495917 0.113554165 0.13426799
0000a0 69 74 d7 bd d4 85 3c 3d b5 96 07 3e 85 57 8c 3d
       -0.1052025 0.046026066 0.13241084 0.068526305
0000b0 fd 13 de 3c 83 4b 8c 3d 26 95 89 3d 7a 7d da 3d
       0.02710914 0.0685034 0.06717901 0.10668464
0000c0 3c c2 80 3d 42 e4 55 3d 95 53 cd 3d 48 48 c5 3d
       0.06287047 0.052219637 0.10025708 0.09632927
0000d0 45 8e a5 bd f6 9f 5d bd e5 27 f5 3d 98 89 04 3d
       -0.080837764 -0.05410763 0.119705 0.032357782
0000e0 e1 df 00 bd f9 5f 2b 3e d8 45 ee 3d 89 03 d1 bc
       -0.031463508 0.1673583 0.116344154 -0.025514381
0000f0 a5 50 fa bd 37 08 5e bd 30 1f d3 bd 88 6a 42 bd
       -0.12222413 -0.054207053 -0.10308683 -0.047464877
000100 71 c0 19 bd 07 b4 e7 3d aa 48 f5 3c b6 73 96 3d
       -0.037537042 0.11313634 0.029941875 0.07346289
000110 ca 4c 04 3d 63 9d 11 be a4 05 eb bd 55 7b f5 bd
       0.032299794 -0.14220195 -0.11475685 -0.11986414
000120 7c be 25 3e e2 a7 39 3e 7b db 3c bc 5b c0 c6 3d
       0.16185945 0.18130448 -0.011526938 0.09704658
000130 4d 82 07 3e 82 15 88 3d 3f 32 a2 3d 48 ea 62 bd
       0.132333 0.06644727 0.0791974 -0.05539921
000140 4e 95 2a bd e4 9b 6a 3d 02 74 a1 3d 89 f6 e0 bc
       -0.041646294 0.057277575 0.07883455 -0.027461307
000150 87 88 95 3d 19 b2 fb bd 0e 32 9e 3c 30 21 fa bc
       0.07301431 -0.12289829 0.019310977 -0.030533403
000160 30 a1 b0 3d 03 75 f0 3c 31 94 5a 3d 86 cd bc bc
       0.08624494 0.02935267 0.053363983 -0.02304722
000170 94 e2 1b 3c be 7f 1c be 07 9a b7 ba f0 4c 51 bd
       0.00951447 -0.15283105 -0.0014007696 -0.051098764
000180 73 69 cd bd d3 09 f2 3d 3a a8 e1 bd 63 86 2e 3d
       -0.100298785 0.1181828 -0.11018415 0.04260863
000190 72 59 f0 bd 70 6a 3e bd d4 22 3c bd 03 12 ac 3d
       -0.1173581 -0.046488225 -0.045931652 0.08401873
0001a0 aa ab f0 bd 85 dc 16 be 33 5e e5 3d 53 21 06 3e
       -0.11751492 -0.14732559 0.11199608 0.1309865
0001b0 23 55 c3 bd ce 94 0c be 70 f9 10 3e 53 f1 12 3d
       -0.09537723 -0.1372864 0.14157653 0.035874676
0001c0 cc 21 0d 3d 6d 75 31 3b 4a 56 bb 3c e9 68 b1 bd
       0.03445606 0.0027078048 0.022868294 -0.08662588
0001d0 d8 fc 4b 3d fe 44 26 3e 75 45 00 3d 19 6d da 3d
       0.049801677 0.16237256 0.03131624 0.1066534
0001e0 af 42 de bd c5 c3 a9 bd aa ec b4 bd ee a7 68 bc
       -0.10852563 -0.08289293 -0.088342026 -0.014200194
0001f0 32 ca c7 3d 98 49 ce bd 0c 9e 8f b9 83 20 25 3d
       0.097553626 -0.10072631 -0.0002739284 0.04031421
000200 d7 a6 a1 3d bd aa ba bc 08 dd 93 3d e8 97 b7 bd
       0.0789315 -0.022786492 0.07219893 -0.08964521
000210 5d 57 a5 bd 06 77 c2 3c ef a6 09 bd 76 28 fa 3c
       -0.08073304 0.023738395 -0.033606466 0.030536871
000220 ac 97 30 3d 89 d1 6d 3d db 5d de bd 8c 6f 09 be
       0.043113396 0.058061156 -0.10857745 -0.13421458
000230 4e f7 f5 bb 81 d5 f3 3d b4 12 b0 3d e9 68 e8 3d
       -0.0075062877 0.11905957 0.08597317 0.11348135
000240 55 ab 87 bd 12 4a 6c bd 97 10 1b 3d f2 1c 5b bd
       -0.06624476 -0.057687826 0.03785762 -0.0534944
000250 e3 1b 03 3e 9a 1f 25 3d 34 a0 77 bd 94 84 e3 3d
       0.12803607 0.04031334 -0.060455516 0.11109272
000260 68 51 96 bd 1d 0f 88 bd 00 26 95 bc a5 38 f5 3d
       -0.07339746 -0.06643508 -0.018206596 0.11973695
000270 e6 1c a9 3d 93 2f ad 3d 4a ed 46 bd 52 fa 82 bd
       0.08257465 0.0845634 -0.04856614 -0.06395401
000280 6f 99 03 bd 79 8a cd bd 39 50 01 3d c9 3c d2 3d
       -0.032128748 -0.10036177 0.031570647 0.102655
000290 24 f9 02 3c ad c8 9a bd 0c 23 da 3c 27 2f ce bd
       0.00799397 -0.07557807 0.02662804 -0.10067587
0002a0 15 f2 82 bd db cf 96 bd 1e 51 92 ba 92 8f d5 bb
       -0.0639383 -0.07363864 -0.0011163091 -0.006517359
0002b0 29 1f c2 bd 1f e7 aa 3d d4 0b 0e 3d 8e e3 a5 bd
       -0.094785996 0.08344864 0.03467925 -0.08100043
0002c0 e8 10 19 3e d3 19 37 3d bf ba f2 bd f3 87 39 3d
       0.14947855 0.044702362 -0.11852025 0.045295667
0002d0 e8 b3 6f 3d c4 5c 11 be 48 b0 b7 3d ca 20 e1 3d
       0.05852118 -0.14195544 0.0896917 0.10992582
0002e0 54 e3 9e 3d a6 ec b9 3d 1e 77 66 3d 03 b4 88 3d
       0.07758203 0.0907834 0.056265943 0.066749595
0002f0 51 c4 ab bd f2 46 b4 3d 43 f6 db 3a bd c4 99 bd
       -0.08387054 0.08802594 0.0016781766 -0.07508228
000300 0b 69 61 3c ab 08 be bd 03 b3 6b bd 86 4a eb 3d
       0.013757954 -0.09278997 -0.057543766 0.114888236
000310 b2 9a a4 3d 79 ef ac 3d dc 36 97 bc 50 ef 64 3d
       0.08037318 0.08444113 -0.018458776 0.05589229
000320 bb 0c 1a bb 0b 86 74 bd cc 40 df 3c 48 35 20 3e
       -0.0023506123 -0.059698146 0.027252577 0.15645325
000330 e2 f8 20 bd 42 ac a3 3d 7f f5 b4 3b 88 a9 f5 3d
       -0.039299853 0.0799184 0.0055224295 0.11995226
000340 9a 16 34 3d 06 80 9b ba 75 ee 4c 3d 9d ae 7d bd
       0.043966867 -0.0011863715 0.050032098 -0.061934102
000350 ff 41 2b bc d7 37 5d bd bd f1 44 bc bb 26 70 3d
       -0.010452746 -0.05400833 -0.0120205255 0.058630686
000360 15 a9 ae bd 00 77 0f bd c4 7c 99 3c 4a ae d5 bd
       -0.085283436 -0.035025597 0.01873625 -0.104336336
000370 7d 17 a9 3d bc 34 76 bd 29 df f9 3d 71 d7 80 3d
       0.08256433 -0.060108885 0.122007675 0.06291092
000380 96 b3 94 3d 00 2b 89 bd d1 21 4b 3c c0 05 8b bd
       0.07260816 -0.06697655 0.012398199 -0.06788206
000390 c2 4c 30 bd c0 9a 02 bd e1 35 f2 bd e1 08 86 3d
       -0.043041952 -0.031885862 -0.11826683 0.06544662
0003a0 b4 ea 9c 3d 2f 08 9a 3b 0a ec 28 bd 0c 4a 0a be
       0.076619536 0.0047006826 -0.04124073 -0.13504809
0003b0 f8 5a 0a 3e 8f 3a 12 bc e3 1a c7 3d c3 84 ba bd
       0.13511264 -0.008925094 0.09721925 -0.091073535
0003c0 61 59 07 be cd 5c 13 ba 5a 1a 55 3d ed a9 cf 3d
       -0.13217689 -0.00056214334 0.052027084 0.10139833
0003d0 8d 3c 02 3e 34 ea ee bd 56 fc 99 3d 2f c3 68 bd
       0.12718411 -0.116657645 0.075188324 -0.056826767
0003e0 b6 4d a4 bd 7d ef 81 3d 05 88 98 3d e7 71 6e bd
       -0.08022635 0.06344507 0.07447819 -0.058214094
0003f0 a5 6e 4f bd bd e8 5d 3d e6 db 02 be 1f de 24 3d
       -0.05064263 0.054177035 -0.12779197 0.040250894

lstm.weight_hh_l1 f4 [200, 50]
000000 3c be 7e 3c e9 e8 d9 3c a1 1b 7a 3d d2 29 ee 3d
       0.015548285 0.026600318 0.061061505 0.1162907
000010 eb 1e 1d bd 0b 86 bc bd 1c f1 48 3d 0b f2 1a bc
       -0.038359564 -0.09205254 0.049058065 -0.009457122
000020 d5 5a ef bd 76 86 18 be 65 21 15 3e af ba 19 3e
       -0.11687247 -0.14895043 0.1456352 0.1501262
000030 97 90 7f 3d e5 1e 3b ba 71 c4 1b bd 2c 7b b9 bd
       0.06239375 -0.00071380875 -0.038029138 -0.09056696
000040 cc 83 eb bd 66 b8 d4 bd e5 0b fd 3b 46 f6 13 3d
       -0.11499748 -0.10386734 0.007722365 0.036123537
000050 82 11 f2 3d de 5d 9a 3c 6a bd 80 3d 0f 47 db 3d
       0.118197456 0.018843587 0.06286128 0.10706913
000060 14 32 ac 3d b9 fd 96 bd 3d c0 51 bd 94 24 02 3e
       0.08407989 -0.073726125 -0.051208723 0.12709266
000070 68 19 3a 3d 99 c7 bb 3d ea 7c 81 3d 64 59 23 3d
       0.045434386 0.091689296 0.063226536 0.03988017
000080 6b 50 0a 3e a3 de 8a bd b3 e3 e5 3d 03 a3 51 bd
       0.1350724 -0.06780746 0.11225071 -0.05118085
000090 26 76 82 3d d6 79 43 3b f2 92 b4 3d 78 09 01 3e
       0.06370191 0.0029827259 0.0881709 0.12601268
0000a0 ae 31 03 be 75 99 b2 3d 02 36 57 3d 2c 54 9b 3d
       -0.1281192 0.08720676 0.05254174 0.07584414
0000b0 56 0c 42 bd 41 f9 79 3d 31 17 93 bd 3b e1 99 bc
       -0.047375046 0.061028723 -0.07182158 -0.018784156
0000c0 97 48 0b be 00 52 ff bd 8e da db bd f5 1d 03 bd
       -0.1360191 -0.12466812 -0.107350454 -0.03201099
0000d0 9d 6a bc 3d 8f 07 1f be 98 14 52 3b 77 8a e5 3d
       0.09200022 -0.15530227 0.0032055732 0.11208051
0000e0 24 ab d7 bd 52 6c b3 3c f4 ed 84 3c 67 0c c2 3d
       -0.10530689 0.021902237 0.016226746 0.09475022
0000f0 1b 13 e0 bd b9 d4 20 3e b8 3f f8 3d fe 37 61 3d
       -0.10941144 0.15706147 0.121215284 0.05498504
000100 84 96 06 3d 20 bd b5 3d 83 d1 05 bc 98 82 89 bd
       0.032858387 0.08873963 -0.008167627 -0.06714362
000110 a3 15 e6 3d fb 32 49 bd 3c 01 ef 3d d8 45 0b bd
       0.112345956 -0.049120884 0.11670157 -0.034002155
000120 d7 59 69 3d b7 4e 87 bd d7 b7 6f bd 88 cb ec 3d
       0.056970444 -0.066068105 -0.058524933 0.11562258
000130 a0 d2 09 3e 52 69 b9 bd 1f 17 fa 3d e6 ec 11 3e
       0.13459253 -0.090532914 0.12211441 0.14250526
000140 fd 7f a7 bc 32 a9 da 3b 0d 47 f0 3d 22 6a 04 3e
       -0.020446772 0.0066730017 0.11732302 0.12931111
000150 0a ef 96 bc 79 27 c2 3c c1 d5 d9 3d 5a 17 1d bd
       -0.01842453 0.023700463 0.106364734 -0.038352348
000160 e5 72 04 3d fb 69 26 bd 81 ae 0a bd f9 fe 9b bc
       0.032336134 -0.040628415 -0.033857826 -0.019042479
000170 4a d5 81 3d b3 68 bb bb 55 c3 9a bd f0 97 c1 bd
       0.0633951 -0.005719268 -0.07556788 -0.09452808
000180 b7 8c 93 3b fa be ff bd 44 3b 44 3d 5e 17 74 3d
       0.0045028585 -0.12487598 0.047908083 0.059592597
000190 16 b6 a8 bb e9 73 ee 3c 5b e8 ff 3d 2e ba cd 3d
       -0.0051486595 0.029108005 0.1249549 0.100452766
0001a0 16 38 de 3c ce ca a0 bd cb 6b 25 bc 69 97 b6 bd
       0.027126353 -0.07851182 -0.010096501 -0.08915598
0001b0 8b 22 df bd 4e 65 ff bd 3d 09 69 3c a4 4a ab bd
       -0.108952604 -0.12470494 0.014223394 -0.08363846
0001c0 0a 0c 4a bd be bb 31 3c a8 8c c6 bd ae 35 c7 3d
       -0.049327888 0.010847984 -0.09694797 0.097270355
0001d0 58 35 e0 3d 18 31 86 3d 31 e8 bb bd 86 c2 97 3d
       0.109476745 0.06552333 -0.09175146 0.07410149
0001e0 22 fe b1 3d 12 02 08 3e 37 78 a3 bd 78 83 c4 3b
       0.0869105 0.1328204 -0.079819135 0.0059971176
0001f0 48 b7 98 bd b5 78 f4 bd df 43 14 3e 68 3d 07 3d
       -0.07456833 -0.119370855 0.14479016 0.033017546
000200 27 60 c8 3c 13 53 06 be 86 d9 a3 3d a6 98 0a bc
       0.024459912 -0.13117628 0.08000474 -0.008459246
000210 5c be e8 3d 35 4c 7c bd 4e 83 b8 bd d6 8a 18 3d
       0.11364433 -0.061596114 -0.090094194 0.03724178
000220 46 7b 8e bc 30 19 80 3d a6 4e 06 be ae 39 6c 3d
       -0.017392766 0.06254804 -0.1311594 0.057672195
000230 7e f4 47 3d ab ed 5f 3c 10 a8 a1 bd 51 84 d9 3d
       0.04881715 0.013667504 -0.078933835 0.106209405
000240 74 77 a4 bd 01 21 ac 3d 67 26 15 3d c5 40 09 bd
       -0.080305964 0.084047325 0.036413576 -0.033509035
000250 9f c8 5a 3d 19 26 cd 3b 4b 49 02 be 1a a8 fe 3d
       0.053413983 0.006260645 -0.12723272 0.124344066
000260 68 0c d2 3d 5f d6 ca 3d d8 44 04 3e 31 21 72 3d
       0.102562726 0.09904169 0.12916887 0.059113685
000270 d6 4c c6 bd eb 4b 08 bc 25 ad d3 bd 67 32 d9 3d
       -0.09682624 -0.0083188815 -0.10335759 0.106053166
000280 0b d2 0d 3d 03 a5 32 bd c1 0a 81 bb 19 8e 4c 3c
       0.03462414 -0.0436144 -0.0039380495 0.012485051
000290 12 b6 85 bd ab d6 05 3d 27 52 94 3d 46 9c 83 3d
       -0.06528868 0.032675426 0.07242232 0.06426291
0002a0 e2 4f 8f bd c1 04 26 3d 7d a3 6c bd 72 fd 6a bd
       -0.06997658 0.040531877 -0.057773102 -0.05737061
0002b0 a6 5f 46 bd cf b8 5f 3d e0 c7 a8 3d 0f 1b 1b 3d
       -0.04843106 0.054619607 0.08241248 0.037867602
0002c0 54 2f f1 3d c7 0e 53 3d 3d c2 c3 3d 4b 5c 58 3d
       0.11776605 0.051527765 0.095585324 0.052822392
0002d0 51 0d 88 bd 3f ac 32 bd 5b c1 a6 3d 0e 59 0b 3c
       -0.06643165 -0.043621298 0.081423484 0.008505119
0002e0 c9 01 e0 3d 23 d0 00 be 34 bb aa bb db fe ee bd
       0.109378405 -0.12579398 -0.0052103046 -0.116697036
0002f0 6f 5b b5 bd 81 65 04 be 6f ed ed 3d 44 2c d7 bd
       -0.0885533 -0.12929346 0.116175525 -0.1050649
000300 56 7b 1e bd b4 6e d7 bd c6 f6 af bd 87 61 19 be
       -0.03869184 -0.10519162 -0.0859199 -0.1497861
000310 0a 68 11 be 65 15 89 bd 1f 93 a1 3c 31 f6 19 3e
       -0.14199844 -0.06693534 0.019723473 0.15035321
000320 ab 5e 85 bd 42 ba 62 bd ac 48 f8 3d bc e3 16 3b
       -0.06512197 -0.05535341 0.12123236 0.0023023924
000330 c0 39 53 bd 85 ab 8b 3c 0f 81 a7 bd 77 ba da 3d
       -0.051568747 0.01704956 -0.08178913 0.106800966
000340 fc 8a e9 3d 9b 6f b6 3d e2 02 15 be d3 45 be 3c
       0.11403462 0.08908006 -0.14551881 0.023226654
000350 ec 79 ae bd 9c 86 35 bd 30 3b d1 bd 5c c3 b3 3c
       -0.085193485 -0.044317827 -0.10216367 0.02194374
000360 e6 94 b9 3d 4f 04 72 bc 8d b4 0b 3d df fc 28 bd
       0.09061603 -0.014771535 0.034107734 -0.04125678
000370 37 47 fe 3c 90 92 30 3d 82 d2 fe 3c 8c 89 e1 bd
       0.031039817 0.043108523 0.031106237 -0.11012563
000380 9e 79 c9 bc 65 e0 b9 bd 53 1c d5 3d 79 b0 a4 bd
       -0.024594124 -0.09076003 0.10405793 -0.08041472
000390 6d 0d 03 be 6a a2 aa bd e5 aa 1e 3d 6b 29 71 bd
       -0.1279809 -0.08331759 0.038737196 -0.05887739
0003a0 75 4e 8e 3c 2e d9 42 bd bd ee e2 bd 8e 05 34 bd
       0.017371396 -0.0475704 -0.11080692 -0.04395061
0003b0 5a 6b 8b 3d 70 76 64 3d 02 12 3b 3b 6d 4e cc 3d
       0.06807585 0.055777013 0.002854467 0.09975896
0003c0 7b 84 10 3e b2 59 31 3d c1 08 13 3e 28 36 8f bd
       0.14113037 0.04329843 0.14358808 -0.06992751
0003d0 41 8f 09 3e bb 26 0f 3e 84 63 08 3d 9f c3 2b 3d
       0.13433553 0.13979618 0.03329803 0.041934606
0003e0 ce f9 49 3d b4 30 33 3d 13 3e 11 bd 15 0a 83 3d
       0.049310498 0.04374762 -0.03545959 0.06398407
0003f0 0e a7 dd bd 50 5e 62 bc 2e 34 fc bd e2 6c 53 3d
       -0.10822879 -0.013816431 -0.1231464 0.05161751

lstm.bias_ih_l1 f4 [200]
000000 ab 22 f6 bd 6f f7 e3 bc 7c 97 8e 3c d1 00 2c 3d
       -0.12018331 -0.027827946 0.017406218 0.041992966
000010 3c 38 26 3d 76 81 c9 bd 0f f7 ce 3d d2 ae 04 3e
       0.040580973 -0.09839146 0.101057164 0.12957314
000020 43 e9 47 3c 91 fa be 3d f6 fc a7 3d 95 cf 50 3c
       0.01220161 0.093251355 0.08202545 0.012744804
000030 0b d1 13 be b2 bb b8 3d fe e9 39 3d 72 47 f0 3d
       -0.14435212 0.09020175 0.045389168 0.11732377
000040 c3 33 d9 bd 48 0a 30 bd 09 9f ee bd f0 f0 9b bd
       -0.10605576 -0.042978555 -0.11651427 -0.076143146
000050 f7 9c 3c bd fa 35 d4 bd 1f 67 e0 3c 22 9a 8d 3d
       -0.04604813 -0.10361858 0.027392922 0.06914164
000060 d9 70 c7 bd 00 13 87 3b d8 4a ed bd ca 96 ba bb
       -0.09738321 0.004122138 -0.11586541 -0.005694245
000070 d1 14 eb bd 78 85 da 3d cb 47 62 3d 13 fb 1a 3d
       -0.1147858 0.106699884 0.05524425 0.0378371
000080 a5 43 b5 3d 9b c8 c5 bd 1c ac c4 3d 1d b5 31 bd
       0.08850793 -0.09657403 0.0960314 -0.043385614
000090 a4 e3 34 bd f0 3a e9 3d 37 fc 83 bd 57 ba 8e bd
       -0.044162408 0.113881946 -0.064445905 -0.06969135
0000a0 6a 0d 9e 3d 6f 2e 90 bd 26 2f 7c bd df 39 07 3c
       0.07717402 -0.070401065 -0.0615684 0.008253544
0000b0 f2 26 c3 bc 50 a2 90 bc 77 b0 fc 3d f9 b3 05 3d
       -0.023822282 -0.017655522 0.123383455 0.03264234
0000c0 f0 8b d8 3d e7 d9 25 bd 19 04 ab 3d 81 c7 a8 3c
       0.10573566 -0.04049101 0.08350391 0.020602943
0000d0 40 d7 45 3d f2 f3 c8 bc f2 d4 fc 3c b0 fd be 3c
       0.04830098 -0.024530385 0.030863259 0.023314327
0000e0 89 b5 8f bd 5e 14 b9 3c df 46 60 3d 97 7b 00 3e
       -0.07017047 0.02259272 0.054755088 0.12547146
0000f0 a2 1b d9 bd b7 6a 84 3a 23 26 79 3d 30 5e d1 bd
       -0.10600974 0.0010102604 0.060827386 -0.10223043
000100 ac a1 0d 3e e9 6b 91 3c d3 82 4e 3c 90 53 a0 bd
       0.13831204 0.01775165 0.012604433 -0.07828438
000110 9e 9e cd bd fa 3b 87 3d 4c fd ce 3d 0d da de bc
       -0.100400195 0.066032365 0.10106906 -0.027203584
000120 bc ce 51 bd cf aa b8 ba c6 a5 dc bd 7a 5a 14 3e
       -0.051222548 -0.0014088991 -0.10773806 0.14487639
000130 53 f9 ea bd 53 09 90 bc 0e cc ee 3d 67 59 b8 3d
       -0.11473336 -0.017582571 0.11660014 0.09001427
000140 1e 3a 93 3d bf 9f e2 3a 6b 4a a9 3a 9d 55 f9 bd
       0.07188819 0.001729004 0.0012915855 -0.121745326
000150 0a bd 16 be 64 23 b1 3d 96 50 d8 bd 34 68 e6 bd
       -0.1472055 0.08649328 -0.105622455 -0.11250344
000160 67 e6 6b bd 0a d9 d3 bd 86 0c dc 3d 5e 10 97 bd
       -0.057592776 -0.10344131 0.10744576 -0.07376169
000170 9f cb 88 3d a9 bf a5 3d c6 23 ca 3c ab a4 75 bd
       0.06679463 0.08093197 0.024675261 -0.059971493
000180 4a 89 5c 3d 0b 61 78 3d 6d 1c ce bd dd 10 d1 3d
       0.053841867 0.060639422 -0.100640155 0.102082945
000190 8a 2b 31 3d 32 37 fc 3d 93 10 0b bd 94 56 fa bd
       0.043254413 0.12315215 -0.033951353 -0.12223545
0001a0 34 59 7b 3d f6 eb 61 3d e4 f7 0d bd 3a 47 84 3d
       0.061364368 0.05515667 -0.034660235 0.06458898
0001b0 91 45 52 bd 8c b8 f9 3c 31 90 0b 3d 27 4e e6 3d
       -0.051335875 0.030483507 0.03407306 0.11245375
0001c0 f0 af 28 3d f1 14 0d 3d 3d 17 01 3e b0 7b e9 bd
       0.041183412 0.0344438 0.12606521 -0.11400545
0001d0 a3 db 52 bd 4c bd 11 be 12 01 fa bd 5b 24 9f 3c
       -0.051478993 -0.14232367 -0.122072354 0.019426515
0001e0 9b 40 97 3d 65 b2 b5 bb 6f eb cb 3d 15 65 bd bd
       0.073853694 -0.005544948 0.09957015 -0.092477955
0001f0 82 45 ec 3d 5d f5 dd 3d 36 48 cf 3d 2c fc 69 3c
       0.11536695 0.10837815 0.10121195 0.014281314
000200 28 6a f1 3d 22 fc 83 3d 00 d5 cb 3d 3a 7c 93 bd
       0.11787826 0.06444575 0.09952736 -0.07201429
000210 d7 44 ab 3d ff a6 21 3e 17 5e f5 3c 38 99 9f 3d
       0.083627395 0.1578636 0.029952092 0.07792896
000220 d4 6f ca 3d 7b 5d 80 bd ca 10 e2 bd 27 52 c3 3c
       0.09884611 -0.0626783 -0.110383585 0.023842884
000230 0a e7 0d 3d 36 6d 19 bd e0 e9 25 3d 03 77 a4 bd
       0.034644164 -0.037457667 0.040506244 -0.08030512
000240 52 02 c8 bd ef fb 23 3d 88 e2 16 be 72 0e ba 3d
       -0.097660676 0.040035184 -0.14734852 0.090847865
000250 c9 88 bb bc ae cb ed 3d c7 e1 6c 3d 27 34 16 bd
       -0.022892373 0.116111144 0.057832506 -0.03667083
000260 86 c8 21 3c 71 f3 e8 bd 47 6e 2b bb 6b f2 a1 3c
       0.009874469 -0.11374558 -0.002615826 0.019768914
000270 8e b2 3c bd a9 56 12 3e b8 d2 c0 3c 16 56 65 ba
       -0.04606872 0.1429087 0.023537979 -0.00087484845
000280 6c d5 66 3d a4 3a 5d bc eb 57 4f 3d 29 63 0b be
       0.05635588 -0.013502751 0.050620954 -0.13612045
000290 98 8b 7b 3d c2 ff 81 ba ff 7a 03 bd 1a a0 95 3d
       0.061412424 -0.0009918141 -0.03209972 0.073059276
0002a0 2e 35 fc 3d 9a 37 f2 bd f3 d9 82 bd df ef 31 bd
       0.12314831 -0.118270114 -0.06389227 -0.04344165
0002b0 9e 5c 33 3c 2c 90 7a bd a5 02 05 3c 2e bd 12 3e
       0.010947375 -0.06117265 0.008118306 0.14329979
0002c0 22 9c 8e bd 0b 00 3c 3e 39 0e b0 3d ad e6 61 3d
       -0.06963374 0.18359391 0.08596463 0.05515163
0002d0 eb 19 e7 bc b5 c0 c6 bc e8 01 1e 3e 56 30 e4 3c
       -0.0282106 -0.024261812 0.15430415 0.02785508
0002e0 54 79 db 3d 21 eb 1b 3d 25 9f 01 be e7 4f bb 3d
       0.10716501 0.038066033 -0.12658365 0.091460995
0002f0 6a 14 85 bd b0 37 25 bd 7e fa bb bb 19 8d 3f 3b
       -0.06498034 -0.04033631 -0.005736648 0.0029228388
000300 1e d4 89 bb 6c 90 e8 3d da 4a c1 bd 1a 3a 5c 3d
       -0.0042061945 0.11355671 -0.09438105 0.053766347
000310 ad c3 9e 3d da f5 f6 3c f7 d7 00 3e 95 f2 b8 3d
       0.07752166 0.030146528 0.12582384 0.09030644

lstm.bias_hh_l1 f4 [200]
000000 00 e3 08 3e 51 f6 c6 3d 7b d3 02 be 09 95 68 3d
       0.13367844 0.0971495 -0.12775986 0.056782756
000010 25 12 0d 3d c4 39 ce 3d c1 e4 03 bd fd b0 b0 3d
       0.034441132 0.10069612 -0.03220058 0.08627508
000020 e0 38 1a bd 9f f9 3e bd b0 19 da 3d 44 00 9d bd
       -0.037651896 -0.046624776 0.10649431 -0.07666066
000030 a7 6f ab bd c0 30 c2 bd fe 7d b6 3d 8f 63 25 3e
       -0.08370905 -0.094819546 0.0891075 0.1615126
000040 dc 4e 39 3d 1e 65 2f bd af 7e 38 bd 2f 1b 84 bd
       0.04524122 -0.042821042 -0.04504269 -0.06450497
000050 74 30 df bd 39 91 9f 3d a6 1d 08 be a6 ac c0 3d
       -0.108979136 0.07791371 -0.1329256 0.0940793
000060 77 e2 99 3d 62 f8 36 bd 55 dd 8a 3d df f4 f3 3d
       0.07513898 -0.04467047 0.06780497 0.1191194
000070 f9 bc 93 3d 73 15 0c 3e 90 e3 ee 3b b6 60 a4 3d
       0.07213778 0.13680057 0.007290311 0.08026259
000080 8b 0d 6d bd e0 36 1b 3e 61 ba 08 3d 77 62 da 3d
       -0.057874244 0.15157652 0.03338087 0.10663312
000090 e7 f8 91 3c f9 c3 29 bd d9 a2 97 3d d4 23 02 be
       0.017818881 -0.04144666 0.074041076 -0.1270898
0000a0 5f 0b d1 bd e5 f3 e7 bc 67 a4 9b bd 4a 27 44 3d
       -0.10207247 -0.02831454 -0.07599717 0.04788903
0000b0 a4 bd 32 bc 0e 04 56 3c f1 cd fd 3d a6 af 4b bd
       -0.010909472 0.01306249 0.12392796 -0.04972806
0000c0 b1 6f 05 3e e5 18 0f 3e 07 cc 80 3d 2a 91 33 3d
       0.13030888 0.1397434 0.06288915 0.04383961
0000d0 7d fa 9c 3c cd c0 88 bb 3c 3e a0 bd 5e 55 10 be
       0.01916241 -0.0041733743 -0.0782437 -0.14095065
0000e0 fc 45 97 3c 82 8e b9 3d a3 0a 26 3d f4 01 1b bd
       0.018465988 0.09060384 0.040537488 -0.03784366
0000f0 a6 29 39 bd 59 03 96 3d f5 2d 9c bd 98 f4 f7 bd
       -0.045205735 0.07324857 -0.07625953 -0.121071994
000100 63 79 93 bd 98 44 0f 3e e3 c2 65 3d 7e 19 dc bd
       -0.07200887 0.1399101 0.05609406 -0.1074705
000110 14 6e 4a bd 07 18 9d 3d c6 df ee bd d4 4f 09 3d
       -0.049421385 0.076705985 -0.11663775 0.033523396
000120 ae 08 73 bd 76 e1 01 bd 8f 3b e9 3c 92 55 08 3d
       -0.05933445 -0.031709157 0.028470783 0.03328473
000130 b7 9f 66 3d 94 90 1b bd bf ec 80 bd 70 a4 67 3d
       0.05630466 -0.037979677 -0.06295156 0.056553304
000140 e1 97 10 3e dc 28 64 3d 36 6d 2d bd d3 47 ad 3d
       0.14120437 0.05570303 -0.04234048 0.08460965
000150 c4 20 e1 3c 60 c8 56 3d 1a 5d ae bd c8 92 23 3d
       0.027481444 0.052437186 -0.085138515 0.039934903
000160 df 52 54 bd c0 92 df bd 93 b1 6d 3d 46 8e 80 bd
       -0.051836845 -0.10916662 0.058030676 -0.062771365
000170 09 bc c5 3c 54 b8 f3 3d 34 05 cf 3d ad 0c 43 3c
       0.024137514 0.11900392 0.10108414 0.011904878
000180 24 f7 32 bd 47 8a 7b bd 58 75 7c bd 74 22 6d bd
       -0.043692723 -0.06141117 -0.061635345 -0.057894185
000190 48 14 b0 3d 89 53 0a 3e 6b b6 27 bd 8c 6f 9e 3d
       0.08597618 0.13508429 -0.04094545 0.0773612
0001a0 d1 a4 66 bd 3a c3 b8 3d e2 c8 a4 3d 97 96 3d bc
       -0.056309525 0.090216115 0.08046128 -0.011571548
0001b0 c9 ec 9f 3d e8 3c aa bc c5 7d 8b 3d b3 5a ed 3d
       0.07808835 -0.020780995 0.06811098 0.11589565
0001c0 1f 6a 8f 3b 0a bd ad 3d 0d 4d 97 bd 8b 07 c1 3b
       0.0043766643 0.08483322 -0.07387743 0.005890792
0001d0 6f 18 95 bd 80 af d6 bb da 63 21 3d 1d 68 13 3d
       -0.07280051 -0.006551683 0.039401866 0.035987962
0001e0 0f e3 8d 3d 35 d8 9e 3c 03 9c 0b be b6 02 74 3b
       0.069280736 0.019390205 -0.13633732 0.003723306
0001f0 6c 4e 70 3d 53 5d e5 bd 5e 1e 4a bd e3 52 82 bd
       0.05866854 -0.11199441 -0.049345367 -0.06363466
000200 20 ef 31 bc f0 54 63 3d 30 5e 7f 3d 8c 7c bb bd
       -0.0108602345 0.055500925 0.062345684 -0.09154615
000210 63 ef 8a bd a1 b9 8f bc 02 f5 1f 3b 93 10 b4 bd
       -0.06783941 -0.01754457 0.002440751 -0.08792224
000220 10 8a a8 bd e7 9d ac 3c be ff d9 bd 36 e8 73 bd
       -0.08229458 0.021071387 -0.10644482 -0.059547625
000230 0b f6 de bd 0a 31 93 bd 91 87 fb bd b1 12 dd 3d
       -0.10886773 -0.07187088 -0.122817166 0.10794581
000240 98 4c f2 3d ae 91 ad bd f8 33 3d 3d 04 59 bc bd
       0.11831015 -0.08475052 0.04619214 -0.09196666
000250 8a fe e0 3d 90 ce ca 3c 81 9f b8 3d 33 f0 91 bd
       0.109860495 0.0247567 0.09014798 -0.071258925
000260 e4 36 05 be 07 8e 03 bd 7e 7b cd 3a b6 f9 64 3d
       -0.1300922 -0.03211787 0.0015677062 0.055902205
000270 04 75 1b bd c3 8c a7 bc 83 b0 46 3d 18 c6 41 3d
       -0.03795339 -0.020452863 0.04850818 0.047308058
000280 12 58 76 bd f7 05 4a bd c5 58 fb bd 5c 57 d4 bd
       -0.060142584 -0.049322095 -0.12272791 -0.10368225
000290 b1 07 97 bd 4c 5b 77 3d f3 ae 88 bd 14 a2 c1 3d
       -0.07374514 0.0603898 -0.06673994 0.09454742
0002a0 32 74 bc 3d a2 d3 16 3d b8 09 18 be 48 f3 a7 39
       0.0920185 0.036822923 -0.14847457 0.0003203398
0002b0 ee 5b 5d bd ea 5d a3 bd a4 04 ec 3a e1 4b af 3d
       -0.05404275 -0.07976897 0.0018006754 0.08559395
0002c0 d6 ae de 3b 83 67 7a 3c 5e 68 9b 3c a5 ce 08 3e
       0.0067957444 0.015283468 0.018970665 0.13360079
0002d0 20 67 e6 3d 3a 34 06 3e d8 66 13 3e ab be 47 bd
       0.11250138 0.1310586 0.143947 -0.04876582
0002e0 52 9a 07 bc f2 63 00 ba 8c ba 92 3d 85 7f 72 bd
       -0.008276539 -0.00048977055 0.07164487 -0.059203643
0002f0 1e a6 93 3d 4c 15 91 bd ff c0 19 be bc 00 40 3d
       0.07209419 -0.0708414 -0.15015028 0.0468757
000300 9d 60 b5 bc e0 f0 12 bd 9a 4b 83 3b b1 39 99 3d
       -0.022140795 -0.035874248 0.004006815 0.07481707
000310 32 fd be bc bb 90 82 3d 1b 35 07 3d 80 ae 80 bd
       -0.023314092 0.063752614 0.03300963 -0.06283283
