src/app/models/MSFT-best-val_loss=0.0009.ckpt (torch, 396901 bytes, 27 tensors)

lstm.weight_ih_l0 f4 [200, 5]
0.044038042 0.06490645 0.059987564 0.0831314 0.11260023 0.08680263 -0.090221666 0.111076914
0.053083543 0.020185357 0.004235347 -0.02855457 0.100079805 -0.12881204 -0.10531312 -0.14565901
-0.046044976 0.10077941 -0.030709965 0.014125943 0.15737572 0.13611603 -0.061280426 0.18230799
0.13659899 -0.008704441 -0.11343322 0.069120176 -0.09097486 -0.005461925 0.015683357 -0.09475395
-0.011438685 0.09272691 0.039969053 -0.13738377 -0.031237056 0.061296128 0.09119589 0.12476515
0.035197172 -0.014805466 0.08982843 0.037802447 0.12328642 -0.03576397 0.06746769 0.001551961
0.16331378 0.1485856 -0.031838603 0.031798568 -0.06149224 -0.05506369 0.10118966 0.06093881
0.03231816 0.031531032 0.12308605 -0.10898585 -0.11152847 -0.019175757 -0.16545275 0.10107851
0.016366046 0.17223911 -0.059193637 -0.058847986 0.079584636 -0.046902005 0.1421484 -0.12232596
0.021033347 -0.08819005 0.033127766 -0.07902251 0.06716141 -0.042787485 -0.012314635 -0.08226283
0.13018416 -0.121898815 0.09672843 0.043447196 0.10759232 -0.036564976 -0.074922696 -0.028610362
0.07596916 -0.03148284 -0.10383916 0.05723953 0.11026231 -0.12019397 -0.027709214 0.083669975
-0.037111204 0.062290166 0.084348775 -0.0012522165 0.056811318 0.06879851 0.14919761 -0.016519623
-0.051813707 0.045961194 0.14300539 0.010203939 -0.042515155 -0.053747345 0.087381095 -0.014491719
0.15288734 -0.06700966 0.0038126772 0.09045188 -0.116552435 0.010766172 -0.07904536 -0.019709898
0.08955528 0.13224724 -0.022476086 -0.11245274 0.12410698 0.09363382 -0.025385631 0.022383645
0.124534614 0.041848388 0.07354134 0.05613584 0.06740551 0.021428937 -0.014603735 0.17991361
-0.088912874 0.10334917 0.16140214 0.14073442 0.008266345 -0.053800996 0.10698347 -0.031294804
-0.08060565 -0.02084716 -0.019555673 0.076339744 -0.10619874 0.057881985 -0.065212324 0.13616379
0.14222138 0.092258535 0.012918837 0.18729773 0.11972067 0.16387284 0.14715987 0.08755404
0.117828086 0.04221752 0.052432735 0.02030826 -0.0752908 0.054638363 0.059845578 0.16057017
0.047037385 -0.0068240454 -0.024441268 -0.123787835 -0.051556505 0.0954966 0.0039652092 -0.10091069
0.090504564 0.13947622 0.07399698 0.008029535 -0.017188484 0.005262886 0.06662794 -0.101749346
-0.12269725 -0.021158842 0.07001602 0.14351887 -0.09331202 0.16806032 0.07965558 -0.08971753
0.06474059 -0.036423106 0.103739366 0.097738005 0.13164446 -0.062394325 -0.051948104 -0.0526051
0.057598688 -0.07846452 0.1799513 0.12282159 -0.02375631 0.012268195 0.05919797 0.034157887
0.13439682 0.12888409 0.07688344 -0.07433488 -0.043938257 0.14883117 0.049102534 0.123506114
-0.090818875 0.091349944 -0.101469256 0.06305873 0.046921615 0.059720583 0.08149481 0.15791129
-0.058491193 -0.133243 0.0658255 -0.09229323 0.02552995 0.017369164 0.025380928 0.100927494
0.14302896 0.12396436 0.14020087 0.115021154 0.012243752 -0.0049724537 0.07145836 0.09231735
0.19040497 0.0498897 0.060033675 -0.0067628203 0.03777508 0.003946572 -0.019293074 0.11050769
-0.04447175 0.12671655 0.17184973 -0.06497717 0.068074405 -0.014051255 -0.11022421 0.15769638
00000000: 3c61 343d aced 843d 85b5 753d cc40 aa3d
00000010: f39a e63d 94c5 b13d 23c6 b8bd 4b7c e33d
00000020: 216e 593d c35b a53c aac8 8a3b 46eb e9bc
00000030: a4f6 cc3d 4ee7 03be 68ae d7bd a327 15be
00000040: a899 3cbd 6f65 ce3d 7793 fbbc 8070 673c
00000050: 1a27 213e 0062 0b3e 2f01 7bbd f2ae 3a3e
00000060: 9be0 0b3e 129d 0ebc ad4f e8bd e18e 8d3d
00000070: 0751 babd f3f9 b2bb 627a 803c 5c0e c2bd
00000080: 5269 3bbc 9be7 bd3d 97b6 233d 55ae 0cbe
00000090: dbe4 ffbc a611 7b3d e9c4 ba3d df84 ff3d
000000a0: e92a 103d a092 72bc f8f7 b73d bdd6 1a3d
000000b0: 977d fc3d 3e7d 12bd 802c 8a3d 2b6b cb3a
000000c0: ba3b 273e d326 183e 3269 02bd 373f 023d
000000d0: 49df 7bbd 778a 61bd 863c cf3d f99a 793d
000000e0: 0c60 043d af26 013d 8a14 fc3d f933 dfbd
000000f0: 0a69 e4bd 7a16 9dbc 726c 29be 4002 cf3d
00000100: 1612 863c 735f 303e 0775 72bd 960a 71bd
00000110: 45fd a23d 511c 40bd 5a8f 113e 0886 fabd
00000120: 204e ac3c fc9c b4bd fbb0 073d 8ed6 a1bd
00000130: ec8b 893d ee41 2fbd 53c3 49bc 6a79 a8bd
00000140: ff4e 053e 16a6 f9bd 8e19 c63d b0f5 313d
00000150: 5d59 dc3d 28c5 15bd 1271 99bd 4760 eabc
00000160: b895 9b3d 27f4 00bd a0a9 d4bd ff73 6a3d
00000170: 35d1 e13d 4228 f6bd 6ffe e2bc 2a5b ab3d
00000180: eb01 18bd f923 7f3d 0dbf ac3d 6a21 a4ba
00000190: fcb2 683d 3ce6 8c3d 42c7 183e 2954 87bc
000001a0: 9c3a 54bd ce41 3c3d 0170 123e 6c2e 273c
000001b0: 5f24 2ebd 2d26 5cbd dcf4 b23d ad6e 6dbc
000001c0: 808e 1c3e 5c3c 89bd 1cde 793b d63e b93d
000001d0: 0bb3 eebd 9964 303c 89e2 a1bd a776 a1bc
000001e0: c268 b73d d26b 073e c51f b8bc 9f4d e6bd
000001f0: cd2b fe3d 17c3 bf3d 87f5 cfbc e85d b73c
00000200: 010c ff3d 3769 2b3d d89c 963d b2ee 653d
00000210: e60b 8a3d bd8b af3c 8144 6fbc 463b 383e
00000220: f417 b6bd bba8 d33d 9a46 253e af1c 103e
00000230: 906f 073c 6f5e 5cbd 261a db3d fb2e 00bd
00000240: 9314 a5bd aac7 aabc 3833 a0bc 0358 9c3d
00000250: ba7e d9bd a915 6d3d 0a8e 85bd 856e 0b3e
00000260: 7ba2 113e 0bf2 bc3d 88a9 533c faca 3f3e
00000270: 1c30 f53d 48ce 273e 14b1 163e 884f b33d
00000280: da4f f13d 47ec 2c3d b5c3 563d 825d a63c
00000290: 1032 9abd 7acc 5f3d a320 753d 826c 243e
000002a0: 46aa 403d 3e9c dfbb 0e39 c8bc 7a84 fdbd
000002b0: ea2c 53bd b993 c33d 96ee 813b 44aa cebd
000002c0: 755a b93d dbd2 0e3e bb8b 973d 508e 033c
000002d0: ddce 8cbc 4a74 ac3b 3b74 883d f661 d0bd
000002e0: b248 fbbd 4f55 adbc 8f64 8f3d 9cf6 123e
000002f0: 5f1a bfbd 0118 2c3e 7722 a33d d3bd b7bd
00000300: b796 843d 6530 15bd 4e75 d43d dd2a c83d
00000310: cecd 063e 3191 7fbd 89c7 54bd 7278 57bd
00000320: 9aec 6b3d 02b2 a0bd 2745 383e e389 fb3d
00000330: 989c c2bc 8a00 493c 9279 723d 24e9 0b3d
00000340: 529f 093e 31fa 033e 1175 9d3d e33c 98bd
00000350: 9af8 33bd 3367 183e bd1f 493d c6f0 fc3d
00000360: 3fff b9bd ae15 bb3d 1dcf cfbd ef24 813d
00000370: e130 403d 929d 743d c0e6 a63d 7fb3 213e
00000380: 7694 6fbd da70 08be 85cf 863d 3c04 bdbd
00000390: 3024 d13c c749 8e3c aaeb cf3c 13b3 ce3d
000003a0: 2f76 123e 07e1 fd3d d190 0f3e 3690 eb3d
000003b0: 059a 483c f7ef a2bb c358 923d e110 bd3d
000003c0: 85f9 423e 2459 4c3d dfe5 753d a69a ddbb
000003d0: 0bba 1a3d 3f52 813b 820c 9ebc db51 e23d
000003e0: 0228 36bd fcc1 013e 60f9 2f3e c012 85bd
000003f0: 986a 8b3d 3c37 66bc 3bbd e1bd 297b 213e

lstm.weight_hh_l0 f4 [200, 50]
0.04733859 0.069821104 -0.06968756 -0.07631586 -0.12890744 0.066503264 0.01927315 0.055510852
-0.13125958 -0.13476443 0.035142 0.11397496 0.13640037 -0.046857998 -0.05535683 0.09559614
-0.08854345 0.006988485 -0.049066998 0.066617735 -0.05764582 -0.09936825 -0.05798833 -0.09747209
-0.044486556 0.14329709 0.100455776 -0.058104772 0.11004631 -0.09741311 -0.14255449 -0.102727085
-0.0464528 -0.08607502 -0.070392966 0.036238253 -0.14757782 0.09711904 0.10274252 -0.06130347
-0.06126549 -0.030470762 0.14480287 0.04939162 0.14515376 0.107188255 -0.06944116 0.15366893
-0.03783142 0.10893496 -0.08398231 -0.063901134 0.08782075 0.06381614 -0.10268393 -0.021595998
0.13805899 0.11078387 0.11302664 -0.11283787 0.13731903 -0.011456159 -0.02106185 -0.05002734
-0.06453987 -0.033856515 0.10327619 0.06961585 -0.0065517616 0.053275064 -0.067519054 0.0006570193
-0.08708629 -0.11261051 -0.08112338 0.033575002 -0.1506013 0.13747679 -0.15639079 -0.017338036
0.024351178 0.09834396 -0.025862934 -0.13420038 -0.017076038 -0.047564894 0.115053035 -0.059528537
0.16102944 0.10949893 -0.042739704 -0.14942276 0.057321414 0.051707502 -0.022238217 0.056713574
0.031307347 0.037201326 -0.064566486 -0.01287107 -0.06641994 0.060677018 -0.109771565 0.13217036
-0.023608385 -0.007870609 0.0912788 0.08876452 -0.064476624 0.02850931 0.036955994 0.07480818
0.044642337 -0.092028804 0.07274269 -0.051364057 -0.0074280463 -0.019243844 -0.14553778 0.02538666
-0.097617924 -0.14473586 0.07629176 -0.08234764 0.06870932 -0.028078621 -0.06464951 0.09151098
0.15010813 -0.0010970754 0.0081425365 -0.008417019 -0.081265524 0.0006855456 0.032691717 0.07637972
0.033141766 -0.14348826 -0.006502605 -0.06587319 -0.083081216 -0.012953222 0.06308495 0.15281126
0.046655975 -0.07525297 -0.12551367 -0.09679548 -0.035804555 0.033365082 0.021394731 -0.06439
-0.03117786 -0.056858066 -0.12163609 -0.07481634 -0.0136766415 0.024795804 -0.13037488 -0.1349604
-0.13092554 -0.034896836 0.08774379 -0.11549455 0.1365924 0.09612167 -0.027594805 0.048814204
0.07336547 0.07257413 -0.12715748 -0.12953013 0.022116635 -0.031712472 -0.0798741 0.09191365
-0.047622975 -0.01981406 -0.09719117 0.069655344 -0.04279861 0.10197755 0.092714444 -0.031050827
-0.037629154 -0.057134297 -0.085654214 -0.024123717 0.012387963 -0.07131725 -0.0016384559 0.06632924
-0.09496591 0.02131759 0.06202226 -0.10942427 -0.034465063 0.020943418 0.034281068 0.031363793
-0.015003448 -0.11099092 0.10288179 0.086736836 -0.058397446 -0.054947175 -0.04634611 0.1446766
-0.061696753 0.010138987 -0.08847347 -0.082771845 0.0057349256 -0.10054279 -0.10174386 0.03914471
-0.06465426 -0.043380897 0.093866765 0.05904959 -0.07793724 -0.12825151 0.07574305 0.07139075
0.12796476 0.117788985 -0.0015508878 0.14357783 0.085636236 0.057311762 -0.115694895 -0.017273147
0.12633157 -0.019370498 0.11263439 -0.044084836 0.01090143 -0.025252113 -0.070378385 -0.10134355
-0.059534416 -0.07150003 0.08359897 -0.0749433 -0.03295051 0.08708489 0.076123096 -0.09228114
-0.03066427 -0.105978735 0.063902944 -0.1016868 0.09484288 0.11620105 -0.06261322 0.027604707
00000000: 1ce6 413d 5efe 8e3d 5ab8 8ebd 7d4b 9cbd
00000010: 5000 04be dd32 883d bae2 9d3c 595f 633d
00000020: e968 06be b0ff 09be 0ff1 0f3d b46b e93d
00000030: 8aac 0b3e 2cee 3fbd d8bd 62bd e9c7 c33d
00000040: 4556 b5bd a9ff e43b 7afa 48bd e16e 883d
00000050: 061e 6cbd 9581 cbbd 2c85 6dbd 729f c7bd
00000060: 8937 36bd 79bc 123e c2bb cd3d 45ff 6dbd
00000070: f65f e13d 8680 c7bd cef9 11be 9462 d2bd
00000080: 4b45 3ebd 1a48 b0bd 302a 90bd 906e 143d
00000090: a41e 17be 59e6 c63d ac6a d23d 5919 7bbd
000000a0: 86f1 7abd d29d f9bc 3447 143e de4e 4a3d
000000b0: 30a3 143e 8485 db3d 2b37 8ebd 635b 1d3e
000000c0: 1ef5 1abd 4b19 df3d ebfe abbd 99de 82bd
000000d0: 5edb b33d 09b2 823d f44b d2bd 17ea b0bc
000000e0: 565f 0d3e a7e2 e23d 837a e73d 8b17 e7bd
000000f0: 5c9d 0c3e 9db2 3bbc e789 acbc 78e9 4cbd
00000100: 7b2d 84bd 21ad 0abd 7882 d33d c192 8e3d
00000110: 29b0 d6bb f436 5a3d 6e47 8abd d23b 2c3a
00000120: 4c5a b2bd 57a0 e6bd 0424 a6bd f185 093d
00000130: 3a37 1abe b7c6 0c3e e824 20be 7f08 8ebc
00000140: 1f7c c73c 8f68 c93d 81de d3bc d36b 09be
00000150: 0ce3 8bbc 68d3 42bd eda0 eb3d 32d4 73bd
00000160: e7e4 243e fa40 e03d d40f 2fbd 4802 19be
00000170: dcc9 6a3d 3fcb 533d ec2c b6bc 7e4c 683d
00000180: 223c 003d 6b60 183d 6f3b 84bd 2ee1 52bc
00000190: 2d07 88bd 7788 783d eacf e0bd ab57 073e
000001a0: 5f66 c1bc baf3 00bc 61f0 ba3d 2cca b53d
000001b0: 520c 84bd 5b8c e93c 2b5f 173d 0835 993d
000001c0: e2da 363d 9979 bcbd 1ffa 943d 1e63 52bd
000001d0: f866 f3bb 44a5 9dbc db07 15be aff7 cf3c
000001e0: e8eb c7bd a335 14be db3e 9c3d e1a5 a8bd
000001f0: 79b7 8c3d 2305 e6bc f666 84bd 1c6a bb3d
00000200: f2b5 193e becb 8fba 4668 053c 89e7 09bc
00000210: 8a6e a6bd 30b6 333a c0e7 053d f86c 9c3d
00000220: a9bf 073d 96ee 12be ce13 d5bb 86e8 86bd
00000230: 7c26 aabd c039 54bc af32 813d 8e7a 1c3e
00000240: 561a 3f3d 3b1e 9abd a886 00be b53c c6bd
00000250: cca7 12bd d3a9 083d 0144 af3c e8de 83bd
00000260: b668 ffbc 01e4 68bd 581c f9bd 4f39 99bd
00000270: fe13 60bc 9220 cb3c fe80 05be 0f33 0abe
00000280: 5811 06be fcef 0ebd 04b3 b33d 6888 ecbd
00000290: e1de 0b3e 70db c43d 800e e2bc 67f1 473d
000002a0: a340 963d bfa1 943d 9235 02be 8ca3 04be
000002b0: f22d b53c f0e4 01bd 0895 a3bd 393d bc3d
000002c0: 4f10 43bd 1851 a2bc 2a0c c7bd 76a7 8e3d
000002d0: 984d 2fbd 9bd9 d03d 12e1 bd3d 4e5e febc
000002e0: 0721 1abd a705 6abd 7a6b afbd 1a9f c5bc
000002f0: e2f6 4a3c c70e 92bd 75c1 d6ba a0d7 873d
00000300: 7d7d c2bd 3aa2 ae3c 0e0b 7e3d d519 e0bd
00000310: 3d2b 0dbd 8891 ab3c 4e6a 0c3d 5277 003d
00000320: 06d1 75bc 354f e3bd b0b3 d23d 15a3 b13d
00000330: 2932 6fbd 4a10 61bd 6bd5 3dbd 1a26 143e
00000340: bcb5 7cbd fe1d 263c 9431 b5bd 4984 a9bd
00000350: 0bec bb3b 61e9 cdbd 165f d0bd 3456 203d
00000360: 7469 84bd 2bb0 31bd 383d c03d fcdd 713d
00000370: 8f9d 9fbd 5d54 03be 2c1f 9b3d 5035 923d
00000380: 3209 033e 5a3b f13d 2947 cbba 1106 133e
00000390: 0d62 af3d bdbf 6a3d 72f1 ecbd 6a80 8dbc
000003a0: 105d 013e e1ae 9ebc dcac e63d 4d92 34bd
000003b0: e99b 323c 85dd cebc 8b22 90bd 358d cfbd
000003c0: 5cda 73bd 9c6e 92bd f035 ab3d df7b 99bd
000003d0: 1df7 06bd 9059 b23d 6de6 9b3d e5fd bcbd
000003e0: a333 fbbc 610b d9bd 8cdf 823d 2b41 d0bd
000003f0: fc3c c23d d1fa ed3d 5c3b 80bd 4423 e23c

lstm.bias_ih_l0 f4 [200]
0.022975558 0.08993378 0.025191393 0.0823697 0.03326576 0.106673844 -0.08838961 -0.06814804
0.13750908 0.027796498 -0.04305984 -0.121267274 0.09438631 -0.0152003635 0.020172684 -0.0045904727
0.073281005 0.12246738 -0.12949796 0.012232641 0.12256763 0.025777664 -0.08971313 0.101122886
0.10133556 -0.07341003 -0.030802155 -0.05718236 0.03271536 0.026875116 0.14724012 0.07082579
-0.0494366 0.0014319792 -0.0448983 0.052790668 -0.06144457 0.048064798 0.1003375 0.02300467
-0.012010877 0.020610288 0.0056762015 -0.09237635 -0.041290075 -0.014055394 -0.110327974 -0.02646999
0.08529081 -0.020938318 -0.07296359 0.13521859 0.046652887 -0.10505799 -0.049610037 0.11142714
0.1295729 0.123864755 -0.110253185 0.05691095 -0.006290026 0.12253797 0.10838199 0.12177168
-0.08971442 0.097115666 0.033725392 0.1410568 -0.042971436 0.0093526635 -0.07220317 0.06670287
-0.028465334 -0.12394528 -0.07670279 -0.025397144 0.051213022 -0.08282716 0.0367806 0.009647762
0.08713502 0.1492406 0.0011141404 0.111241765 0.13442288 -0.083807155 -0.099196255 0.0031653293
0.078224555 -0.11381791 -0.118486054 -0.083917186 -0.13019644 0.036929 -0.11457343 0.04018635
0.007969597 -0.12446327 0.09241323 -0.010850868 0.112920575 -0.11136943 -0.0077902228 -0.08180425
-0.065647386 0.051002167 -0.12489732 -0.027564693 0.04907578 0.12736332 0.08889782 -0.07869067
-0.16172339 0.06751439 -0.07974516 -0.106851175 0.095408835 -0.10836078 0.08909987 0.13595673
-0.07412871 0.026604278 0.12108514 -0.081082135 0.07545516 -0.0970281 0.004237485 0.009064962
-0.12788889 0.1472417 0.00095815497 -0.066808574 -0.116453364 0.13050672 0.0624978 -0.043074448
-0.03463083 0.115775496 -0.0856719 0.11165984 0.02529279 -0.03282481 -0.05754627 -0.08426696
0.056745745 0.10856486 -0.13051216 -0.12690538 -0.03800948 -0.13575153 -0.10904215 -0.06499019
-0.12047493 -0.114953525 0.14581461 -0.01912379 0.085178375 0.057631653 0.04497505 0.12600997
-0.052748784 -0.08457262 0.057456803 0.13445418 0.102287374 -0.016001973 0.11209216 -0.06706768
-0.024249773 -0.02641919 0.04620343 0.06054998 0.017873053 0.041371934 -0.07722674 -0.070539005
-0.021050535 -0.07771323 0.12016736 -0.08179411 -0.05052439 -0.10107807 -0.057555113 -0.022147004
0.09380088 -0.105522 0.03527925 0.13553318 0.08334256 0.10744199 0.05529246 -0.04874017
-0.04914252 0.1281645 -0.120966054 -0.15133801 -0.11435782 0.14625293 0.01244353 0.050044723
00000000: 3d37 bc3c 342f b83d 2e5e ce3c 72b1 a83d
00000010: ad41 083d d177 da3d 9d05 b5bd 3391 8bbd
00000020: 2ecf 0c3e 7bb5 e33c 845f 30bd fa5a f8bd
00000030: 9c4d c13d f20a 79bc 2f41 a53c ad6b 96bb
00000040: 5a14 963d 2dd0 fa3d 1d9b 04be 6a6b 483c
00000050: bd04 fb3d ae2b d33c 84bb b7bd 8419 cf3d
00000060: 0589 cf3d ff57 96bd cd54 fcbc 0d38 6abd
00000070: 8b00 063d 3429 dc3c 1dc6 163e 1d0d 913d
00000080: 087e 4abd 40b1 bb3a 48e7 37bd 073b 583d
00000090: 4dad 7bbd 98df 443d bf7d cd3d 4a74 bc3c
000000a0: 45c9 44bc e8d6 a83c 6eff b93b d02f bdbd
000000b0: c81f 29bd 9848 66bc a2f3 e1bd 98d7 d8bc
000000c0: f3ac ae3d d686 abbc ef6d 95bd be76 0a3e
000000d0: 1917 3f3d a528 d7bd e533 4bbd ea33 e43d
000000e0: c2ae 043e ceac fd3d 6ccc e1bd 751b 693d
000000f0: 901c cebb 30f5 fa3d 60f7 dd3d 6e63 f93d
00000100: 32bc b7bd 94e4 c63d a323 0a3d 3271 103e
00000110: d102 30bd ea3b 193c 41df 93bd 849b 883d
00000120: 2230 e9bc 06d7 fdbd 5a16 9dbd ac0d d0bc
00000130: bfc4 513d 49a1 a9bd 41a7 163d a611 1e3c
00000140: d873 b23d 87d2 183e 5908 923a b9d2 e33d
00000150: 27a6 093e 16a3 abbd 6827 cbbd 6a71 4f3b
00000160: 3234 a03d 5d19 e9bd d1a8 f2bd c6dc abbd
00000170: 3752 05be dd42 173d 79a5 eabd 719a 243d
00000180: ea92 023c 99e6 febd 2643 bd3d d7c7 31bc
00000190: e742 e73d a815 e4bd 2045 ffbb fd88 a7bd
000001a0: 2372 86bd a6e7 503d 2bca ffbd 5acf e1bc
000001b0: af03 493d 886b 023e 0f10 b63d 9328 a1bd
000001c0: d19a 25be fc44 8a3d 6e51 a3bd cad4 dabd
000001d0: b565 c33d 42ec ddbd fe79 b63d 3e38 0b3e
000001e0: cbd0 97bd 37f1 d93c 7cfb f73d 640e a6bd
000001f0: 3c88 9a3d abb6 c6bd 9ada 8a3b 3585 143c
00000200: 4ef5 02be 87c6 163e b12c 7b3a efd2 88bd
00000210: 1a7f eebd 8ea3 053e b1fd 7f3d d56e 30bd
00000220: 0fd9 0dbd b41b ed3d c074 afbd eaad e43d
00000230: d332 cf3c 4f73 06bd a3b5 6bbd 2894 acbd
00000240: 3a6e 683d 4157 de3d fba4 05be 7cf3 01be
00000250: d4af 1bbd 7302 0bbe 7e51 dfbd 9419 85bd
00000260: 8fbb f6bd c16c ebbd 6d50 153e 7fa9 9cbc
00000270: 0072 ae3d 2b0f 6c3d c237 383d c208 013e
00000280: 1c0f 58bd 6934 adbd d357 6b3d 5bae 093e
00000290: 0b7c d13d 9216 83bc 9390 e53d c85a 89bd
000002a0: 76a7 c6bc 0f6d d8bc cf3f 3d3d 4103 783d
000002b0: 826a 923c 9e75 293d 0e29 9ebd c176 90bd
000002c0: 2c72 acbc 1d28 9fbd 4e1a f63d ac83 a7bd
000002d0: aaf2 4ebd 0502 cfbd e9be 6bbd a26d b5bc
000002e0: ad1a c03d eb1b d8bd fa80 103d 36c9 0a3e
000002f0: 81af aa3d 8c0a dc3d 597a 623d c6a3 47bd
00000300: ab49 49bd 8e3d 033e 0dbd f7bd 5af8 1abe
00000310: 6f34 eabd 54c3 153e f3df 4b3c b2fb 4c3d

lstm.bias_hh_l0 f4 [200]
0.097061716 -0.05676509 -0.10849087 0.0029370997 -0.0932529 -0.0068384595 0.12470248 -0.044775076
0.09225803 -0.12657677 -0.00053582684 0.05869243 -0.09144996 0.0012716154 -0.108817264 0.021886513
-0.07558001 -0.12658364 -0.08891168 0.076803654 -0.13295257 0.11919425 -0.04823235 -0.090004906
0.03993428 -0.03497119 -0.05354213 -0.116946876 0.1261893 0.03183936 -0.058736548 0.13351163
-0.026200702 0.1385992 -0.061742455 -0.0733838 -0.13043189 0.023790868 0.13589606 0.057597402
0.052959003 0.108548254 0.050744876 0.015352355 0.114935376 -0.0058222353 0.041281223 -0.0035558525
0.12534997 0.04708397 0.12534 0.018456226 -0.066100925 0.031539947 -0.08216896 0.08900753
-0.025941195 0.09202228 -0.061188173 0.015994132 -0.014753868 0.03154221 -0.11999515 0.029908113
0.1356103 -0.034861486 -0.14320533 -0.017266855 -0.056932293 -0.03969079 0.0032691997 0.047287025
0.10886472 0.103493474 0.050247975 0.03597504 0.06854766 0.0928564 -0.030027263 -0.094117634
0.018886235 0.11458266 -0.06321909 0.036259484 0.049366478 0.09044655 0.031219872 -0.0017674082
0.08854471 0.11487078 -0.0076658726 -0.08686204 0.009788397 -0.11535523 0.083333515 -0.11888232
-0.06002136 -0.09261343 -0.07592788 0.0504453 0.10706382 -0.010189847 -0.10002611 -0.0029953234
0.047029197 0.054986086 0.09437875 -0.14059532 0.124331646 0.041987795 0.14201777 -0.08809166
0.097956605 -0.07636064 0.102719456 -0.06592591 0.03779248 -0.07982926 0.07726161 0.0480607
-0.08068042 0.112051636 0.1261633 -0.03357485 -0.060625102 -0.12693158 0.0357075 0.04039988
0.035987396 -0.041706156 -0.029169885 -0.115209006 -0.06268404 -0.082523726 0.06329705 -0.047798436
-0.07515389 0.0072961804 -0.025060264 -0.077977866 0.11513932 0.068393774 -0.086065345 -0.07689794
0.046884485 0.12547229 0.103985325 -0.07790308 0.094870575 0.05757089 0.010932695 0.13499032
-0.13028224 -0.07304283 -0.02786872 -0.044507686 0.056312345 -0.01524719 0.02111358 -0.01579739
0.10911228 0.0975069 -0.039323468 0.13826595 -0.11188013 0.129996 0.090045564 -0.018114395
0.106922254 -0.05520073 -0.029395606 -0.004559657 -0.008766076 -0.06588259 -0.07898854 -0.107507594
0.16831984 0.04913135 0.09192152 -0.114774935 0.043366566 0.03149978 0.028732464 0.15204345
-0.089865096 0.025105301 0.042658743 0.0067961435 0.0029340496 0.009523262 0.046639863 0.11557579
0.047907393 0.035331883 0.0077072293 -0.0029723814 -0.08120855 -0.034001473 0.078884184 -0.017742788
00000000: 4bc8 c63d 8382 68bd 7630 debd 5b7c 403b
00000010: 60fb bebd 2815 e0bb 0464 ff3d 1266 37bd
00000020: c7f1 bc3d 579d 01be bb76 0cba 7967 703d
00000030: 1e4a bbbd 55ac a63a 96db debd 584b b33c
00000040: b1c9 9abd 249f 01be 5417 b6bd 3c4b 9d3d
00000050: b824 08be 1d1c f43d 498f 45bd 7e54 b8bd
00000060: 2192 233d f33d 0fbd fe4e 5bbd d881 efbd
00000070: c537 013e fd69 023d bc95 70bd 46b7 083e
00000080: dba2 d6bc f3ec 0d3e a8e5 7cbd 3f4a 96bd
00000090: f08f 05be 11e5 c23c 5628 0b3e 41eb 6b3d
000000a0: 8aeb 583d 8c4e de3d dcd9 4f3d 7288 7b3c
000000b0: 3d63 eb3d 73c8 bebb 8016 293d 4e09 69bb
000000c0: be5b 003e 1fdb 403d 2159 003e 8331 973c
000000d0: ec5f 87bd 0830 013d 3348 a8bd 9449 b63d
000000e0: a182 d4bc 2d76 bc3d 73a0 7abd 2006 833c
000000f0: 35ba 71bc 6832 013d 04c0 f5bd dc01 f53c
00000100: 6ddd 0a3e ebca 0ebd 6ba4 12be 3873 8dbc
00000110: d631 69bd cf92 22bd 1240 563b 0ab0 413d
00000120: 77f4 de3d 63f4 d33d d2d0 4d3d 905a 133d
00000130: b762 8c3d 7f2b be3d bcfb f5bc bfc0 c0bd
00000140: 4eb7 9a3c 50aa ea3d 0379 81bd d384 143d
00000150: 8134 4a3d 0a3c b93d d1c0 ff3c 61a8 e7ba
00000160: ee56 b53d 5f41 eb3d 0032 fbbb bae4 b1bd
00000170: 835f 203c 5d3f ecbd c3aa aa3d 9378 f3bd
00000180: f5d8 75bd 1cac bdbd 1480 9bbd bb9f 4e3d
00000190: 4744 db3d 51f3 26bc 7dda ccbd 304d 44bb
000001a0: b0a1 403d 1739 613d a549 c13d 38f8 0fbe
000001b0: 97a1 fe3d 65fb 2b3d 1b6d 113e 6669 b4bd
000001c0: 799d c83d f862 9cbd 945e d23d 2a04 87bd
000001d0: 4acc 1a3d 867d a3bd 563b 9e3d 4cdb 443d
000001e0: c73b a5bd 547b e53d f430 013e c885 09bd
000001f0: 0752 78bd 5afa 01be 0742 123d 587a 253d
00000200: 8567 133d 13d4 2abd aff5 eebc b3f2 ebbd
00000210: 7d60 80bd 3302 a9bd e2a1 813d 4bc8 43bd
00000220: 48ea 99bd cc14 ef3b 2f4b cdbc dcb2 9fbd
00000230: 2ace eb3d 0912 8c3d 0743 b0bd ab7c 9dbd
00000240: f209 403d cf7b 003e 42f6 d43d a68b 9fbd
00000250: 814b c23d 74cf 6b3d 0c1f 333c e73a 0a3e
00000260: b568 05be 7b97 95bd f14c e4bc b14d 36bd
00000270: c6a7 663d 5acf 79bc 63f6 ac3c 8769 81bc
00000280: 4276 df3d b3b1 c73d a511 21bd 9795 0d3e
00000290: 6921 e5bd ac1d 053e cf69 b83d a464 94bc
000002a0: 0efa da3d 291a 62bd 0ecf f0bc 2d69 95bb
000002b0: 969f 0fbc 74ed 86bd bec4 a1bd f12c dcbd
000002c0: 095c 2c3e f43d 493d 5a41 bc3d 1f0f ebbd
000002d0: 24a1 313d ea05 013d 5860 eb3c 47b1 1b3e
000002e0: 310b b8bd a2a9 cd3c efba 2e3d 2fb2 de3b
000002f0: 2f49 403b 7507 1c3c 7109 3f3d 00b3 ec3d
00000300: 8b3a 443d 2ab8 103d ed8c fc3b 49cc 42bb
00000310: ab50 a6bd 2145 0bbd 088e a13d 5359 91bc

lstm.weight_ih_l1 f4 [200, 50]
-0.13158394 0.024144124 -0.035276975 -0.037157405 -0.13150918 -0.022428425 0.019917114 0.12610264
0.06790273 -0.094600745 -0.0011810132 0.12204541 0.043503333 -0.100036286 -0.030761665 -0.08250086
0.09134485 -0.07639936 -0.04476657 -0.12877361 -0.10629098 0.040344264 -0.029830692 -0.0055695497
0.14366315 0.07165854 0.022019777 0.0075383917 -0.08634776 0.08727494 0.12608443 0.031886615
-0.050411034 0.07696529 -0.03386265 0.03731685 0.028200308 -0.0910541 -0.12432314 -0.015305225
-0.16217846 0.059611514 -0.08179947 0.19382432 0.12600769 0.08269163 -0.025156243 0.015773784
-0.07591868 -0.039205443 0.1320187 0.11646425 0.11806988 -0.07742436 -0.09000941 0.14486034
0.066429116 0.025088044 -0.0512404 -0.066906765 -0.13189338 0.076811925 0.14441058 0.02925262
0.08678182 -0.005158526 -0.04843619 -0.01685607 -0.020791778 -0.05540823 0.020583356 -0.05362427
-0.104406066 -0.0015048794 0.020113148 -0.012767063 0.10355309 -0.10685419 -0.01933581 0.07704209
-0.019130358 0.15696597 0.0033534952 -0.089614436 -0.117510445 -0.02572696 0.113947704 -0.1261615
-0.082600996 -0.11488545 0.044823322 0.036599983 -0.04362468 -0.06884776 -0.07112421 -0.026766814
0.10327918 -0.013597955 -0.18022057 -0.04870392 0.08121399 -0.024061438 0.14954397 0.012109906
0.115361005 0.085238814 -0.122966446 -0.07592481 -0.0234539 -0.014471664 -0.06357933 0.021142617
0.07661879 -0.05116652 0.15913534 0.054392345 -0.14007352 -0.05874634 0.116037786 -0.059133444
0.12246501 0.072292805 0.05234778 -0.055350885 -0.019421577 -0.075386755 0.13007025 -0.054871876
-0.056139372 0.009058842 0.039557103 -0.054207675 -0.049195334 0.16737303 -0.040561557 -0.06226151
0.1284846 0.07359017 -0.014514087 -0.060428105 0.12488053 -0.003923094 -0.024135888 0.06357714
-0.065570585 0.10317055 -0.08359934 0.024508307 -0.032355845 -0.021049026 -0.03817227 -0.04087758
-0.033828802 -0.024558421 -0.014006062 0.12374506 -0.03587236 0.20565201 -0.10080358 0.11609624
-0.04862284 -0.10616169 0.09764441 -0.11937588 -0.09403502 -0.04934951 0.05758043 -0.1370245
0.084600165 0.061417 -0.02853603 -0.2011358 -0.014592634 0.042154506 0.062167622 -0.11331816
-0.01588792 -0.033906743 0.061119474 0.0043106936 -0.08881483 0.04060876 -0.009152077 -0.029268993
0.028486015 -0.0611394 0.09534868 -0.08545132 0.13561335 0.06937724 -0.14941831 -0.02651705
0.09485456 -0.030871226 -0.00052772975 -0.12451155 0.04786714 0.011144284 -0.1895878 0.12440175
0.048078764 -0.08481697 -0.10015209 -0.05907817 0.09896191 -0.10884344 -0.019681392 0.05533237
-0.006571457 -0.012203729 -0.08179982 0.12329822 -0.0962603 0.07789902 0.0909532 0.10475962
0.009091547 -0.10016696 -0.013015155 0.06482418 -0.04638141 -0.16027164 0.0059623527 -0.08545752
-0.13604306 -0.11569406 -0.13096635 0.114600405 -0.03465258 -0.069454 -0.05254128 -0.078465395
0.026321327 -0.099761106 0.14743991 -0.06543264 -0.1628176 -0.022503909 0.17561753 -0.097887196
-0.08724653 -0.16206677 -0.07083495 0.022669576 -0.056073733 0.10098189 0.0742313 -0.10543461
-0.14177804 0.06309322 0.027573787 -0.12098905 -0.048544303 0.13926764 -0.13111319 -0.07589905
00000000: f1bd 06be e6c9 c53c 977e 10bd 5d32 18bd
00000010: 58aa 06be d1bb b7bc 3729 a33c 0d21 013e
00000020: 9610 8b3d 09be c1bd 3acc 9aba f2f2 f93d
00000030: 8d30 323d d3df ccbd e3ff fbbc 36f6 a8bd
00000040: 0213 bb3d 4577 9cbd 275d 37bd 3bdd 03be
00000050: 16af d9bd 0740 253d 7f5f f4bc c580 b6bb
00000060: 6f1c 133e b6c1 923d d262 b43c 9d04 f73b
00000070: 18d7 b0bd 34bd b23d 471c 013e 8a9b 023d
00000080: cd7b 4ebd fa9f 9d3d 90b3 0abd 8ed9 183d
00000090: 5504 e73c 927a babd 219d febd c4c2 7abc
000000a0: 1c12 26be 342b 743d 7b86 a7bd e279 463e
000000b0: 2908 013e 3b5a a93d 7714 cebc 0638 813c
000000c0: 417b 9bbd e395 20bd e92f 073e cf84 ee3d
000000d0: 9fce f13d aa90 9ebd db56 b8bd 4556 143e
000000e0: fd0b 883d 7185 cd3c 74e1 51bd 6a06 89bd
000000f0: 0f0f 07be 924f 9d3d 5ee0 133e 31a3 ef3c
00000100: abba b13d da08 a9bb 0765 46bd be15 8abc
00000110: 8553 aabc bdf3 62bd 6d9e a83c 1fa5 5bbd
00000120: d9d2 d5bd 603f c5ba 54c4 a43c f22c 51bc
00000130: a413 d43d 5fd6 dabd 2266 9ebc 3ec8 9d3d
00000140: 45b7 9cbc b0bb 203e 50c6 5b3b c687 b7bd
00000150: 51a9 f0bd 58c1 d2bc 6a5d e93d 7b30 01be
00000160: b62a a9bd 1049 ebbd a998 373d dde9 153d
00000170: cbaf 32bd 0e00 8dbd 92a9 91bd 1446 dbbc
00000180: 0984 d33d f5c9 5ebc be8b 38be c37d 47bd
00000190: 8553 a63d 7e1c c5bc 0e22 193e a168 463c
000001a0: 6442 ec3d b091 ae3d d5d5 fbbd 777e 9bbd
000001b0: 6522 c0bc 8f1a 6dbc e135 82bd 4833 ad3c
000001c0: 50ea 9c3d fc93 51bd 60f4 223e 82ca 5e3d
000001d0: 6f6f 0fbe 01a0 70bd 38a5 ed3d e935 72bd
000001e0: efce fa3d 400e 943d a06a 563d 9cb7 62bd
000001f0: 001a 9fbc 5f64 9abd 2331 053e 55c1 60bd
00000200: 66f2 65bd 8a6b 143c a106 223d de08 5ebd
00000210: 0c81 49bd d663 2b3e e023 26bd ed05 7fbd
00000220: 7891 033e 71b6 963d 7ecc 6dbc 7683 77bd
00000230: 5dc1 ff3d 4c8d 80bb a0b8 c5bc bb34 823d
00000240: df49 86bd 154b d33d 2136 abbd a5c5 c83c
00000250: 9087 04bd 026f acbc 875a 1cbd 406f 27bd
00000260: 1290 0abd be2e c9bc af79 65bc 0d6e fd3d
00000270: e5ee 12bd 7196 523e 1b72 cebd dec3 ed3d
00000280: be28 47bd 4d6b d9bd cbf9 c73d 577b f4bd
00000290: 6f95 c0bd b622 4abd 75d9 6b3d 2750 0cbe
000002a0: da42 ad3d 6490 7b3d 64c4 e9bc 8bf6 4dbe
000002b0: f115 6fbc 34aa 2c3d 7aa3 7e3d 5a13 e8bd
000002c0: 6227 82bc cce1 0abd 6a58 7a3d b840 8d3b
000002d0: 8de4 b5bd 5f55 263d 98f2 15bc 87c5 efbc
000002e0: 815b e93c 4f6d 7abd 2b46 c33d 1a01 afbd
000002f0: 3ade 0a3e a815 8e3d 1d01 19be 493a d9bc
00000300: 1c43 c23d a7e5 fcbc 5857 0aba e9ff febd
00000310: 5610 443d 8496 363c 4e23 42be 58c6 fe3d
00000320: 3dee 443d 85b4 adbd 8a1c cdbd f4fb 71bd
00000330: 8bac ca3d 4fe9 debd df3a a1bc 32a4 623d
00000340: 6055 d7bb 26f2 47bc aa86 a7bd c783 fc3d
00000350: 1f24 c5bd 8589 9f3d ac45 ba3d 368c d63d
00000360: b6f4 143c 5624 cdbd 843d 55bc 8ac2 843d
00000370: 6ffa 3dbd 401e 24be d75f c33b 5a04 afbd
00000380: df4e 0bbe 02f1 ecbd 0b1c 06be 9eb3 ea3d
00000390: ddef 0dbd e63d 8ebd 8635 57bd 77b2 a0bd
000003a0: d39f d73c 8d4f ccbd 7dfa 163e 8c01 86bd
000003b0: a8b9 26be 1e5a b8bc 15d5 333e 1579 c8bd
000003c0: 4fae b2bd d5f4 25be ea11 91bd 8cb5 b93c
000003d0: 92ad 65bd 98cf ce3d 9406 983d 1aee d7bd
000003e0: 432e 11be 0537 813d 6ce2 e13c 1bc9 f7bd
000003f0: 64d6 46bd 2d9c 0e3e 8942 06be f670 9bbd

lstm.weight_hh_l1 f4 [200, 50]
-0.022766944 0.056994773 0.016803868 -0.0030582738 0.13627432 -0.035826 -0.0962302 0.08376146
-0.00013127967 0.026020596 -0.051614724 0.09254185 0.13315904 -0.1091783 -0.07079731 -0.06783362
-0.08452997 0.09529374 0.038075827 -0.070918605 -0.11019234 -0.13489608 -0.09194003 -0.025275335
-0.06501187 -0.004938126 -0.035681162 0.043531995 0.10047068 0.056632433 0.051493116 0.08578602
-0.03310673 -0.036425274 -0.057487674 -0.09930955 -0.028225275 -0.087806635 0.101809695 -0.03952186
0.13170122 -0.069819376 0.14558287 0.04538908 -0.030215112 -0.04093332 0.004935081 0.1376483
0.10023789 -0.09877173 0.065758556 0.04504119 -0.006907732 -0.07639604 0.0062000817 -0.059649423
0.0503588 -0.14853154 0.008174614 0.077675395 0.11829883 -0.0697598 -0.08077566 -0.0012217608
0.07791527 0.09949635 -0.12184646 0.010667829 0.032616537 0.057780124 -0.07156936 0.1224511
0.063762896 0.13234645 -0.12932445 0.082288444 0.04972646 -0.069648266 -0.037943546 0.14271373
0.10592724 0.040271796 -0.10330003 0.06128348 -0.081889585 -0.021096008 -0.08526959 -0.09210197
-0.11486001 -0.069196574 -0.052975707 -0.011787146 -0.04139314 -0.094768286 -0.13815968 -0.10376518
-0.05180214 -0.019412534 -0.007914499 -0.03584995 0.045753524 0.13810149 0.10511318 -0.011339674
-0.065423034 0.04945952 0.03202867 0.09096724 0.090142496 -0.030896092 -0.006634546 -0.095517695
-0.08955878 -0.11293693 0.034851953 -0.124116436 -0.03040326 -0.056107424 -0.11122815 -0.036358643
0.0818986 0.043273464 0.070802934 -0.121571444 0.07454575 -0.039308507 0.05971742 -0.073260054
-0.07108734 -0.008362047 -0.027513925 0.019521426 -0.11910381 -0.09863646 0.09002485 0.15900639
0.027388481 0.00070371374 -0.0690207 -0.013276888 -0.011208542 -0.12488403 -0.054755896 -0.0046002
-0.06321113 -0.0023581395 -0.041605413 -0.10165408 -0.010459173 0.105479844 -0.081258915 0.06341633
-0.050326686 -0.09976865 0.10534921 -0.01406818 0.013299646 0.011465039 -0.06470388 -0.10841962
0.10964044 -0.06766432 0.01527962 -0.12556903 -0.05831523 -0.032802712 0.031420007 -0.05639537
-0.09171655 0.14838417 0.043508235 -0.019509936 0.049617384 -0.08435367 -0.0002264331 -0.051892575
-0.11747514 -0.08552785 0.1307396 -0.01405671 -0.0373756 -0.08307955 -0.11529838 0.020661026
0.0453506 -0.024393348 0.05235092 0.11213114 -0.019921623 0.13877745 0.13364658 -0.05022061
0.123352855 0.07219977 -0.0012432212 -0.03276526 -0.1317196 -0.061907068 0.12016256 -0.077055015
-0.08408989 -0.097165704 0.0933915 0.11779477 0.10953595 -0.048241865 0.09826182 0.053383444
0.0065651042 -0.09944101 -0.11462065 -0.1031896 0.021316817 0.038839452 0.15714388 0.043493588
-0.040966175 -0.031954285 -0.0011768709 -0.11608193 0.018558647 0.075605296 0.08424565 -0.039285544
0.04869385 0.0023298385 -0.077951625 -0.115800135 -0.003350736 0.11194272 -0.13177373 -0.08256876
0.11289543 -0.09892249 -0.13297084 -0.1540435 0.01349981 -0.027192298 -0.11846697 0.061379403
-0.053369053 0.048460413 0.10483239 0.1127151 0.07310923 -0.14284196 0.13112049 -0.07871287
0.004442614 -0.036631446 0.011266346 0.008108636 0.071414 0.0946539 -0.04709729 0.1493616
00000000: be81 babc 5a73 693d 44a8 893c 526d 48bb
00000010: 7f8b 0b3e 49be 12bd 5714 c5bd 218b ab3d
00000020: 1ea8 09b9 2529 d53c f669 53bd 9586 bd3d
00000030: d85a 083e df98 dfbd 2efe 90bd 5aec 8abd
00000040: 0d1e adbd 5d29 c33d 66f5 1b3d c63d 91bd
00000050: 86ac e1bd 3322 0abe 0e4b bcbd 380e cfbc
00000060: f124 85bd 01d0 a1bb 6926 12bd 9b4e 323d
00000070: 92c3 cd3d 69f7 673d 72ea 523d 95b0 af3d
00000080: ec9a 07bd ab32 15bd 3278 6bbd ce62 cbbd
00000090: b138 e7bc f7d3 b3bd 9a81 d03d ade1 21bd
000000a0: afdc 063e 76fd 8ebd ad13 153e e6e9 393d
000000b0: af85 f7bc b2a9 27bd 76b6 a13b adf3 0c3e
000000c0: 8649 cd3d d548 cabd 6cac 863d 1c7d 383d
000000d0: 425a e2bb 8775 9cbd 0e2a cb3b f452 74bd
000000e0: 0745 4e3d a718 18be d1ee 053c 4714 9f3d
000000f0: a846 f23d 3ade 8ebd b66d a5bd 7d23 a0ba
00000100: 0b92 9f3d bec4 cb3d a38a f9bd 1ec8 2e3c
00000110: eb98 053d daaa 6c3d f592 92bd a4c7 fa3d
00000120: 1f96 823d d485 073e a16d 04be d886 a83d
00000130: f9ad 4b3d c0a3 8ebd b16a 1bbd 8c23 123e
00000140: 61f0 d83d 0af4 243d f78e d3bd 6304 7b3d
00000150: bab5 a7bd 89d1 acbc d3a1 aebd f59f bcbd
00000160: ba3b ebbd efb6 8dbd 0efd 58bd e01e 41bc
00000170: da8b 29bd e015 c2bd bb79 0dbe d782 d4bd
00000180: 7b2e 54bd 0907 9fbc d1ab 01bc 66d7 12bd
00000190: 0c68 3b3d 7a6a 0d3e 9445 d73d 0aca 39bc
000001a0: 83fc 85bd 1196 4a3d 7f30 033d 084d ba3d
000001b0: a19c b83d cd19 fdbc 9b66 d9bb c89e c3bd
000001c0: 986a b7bd 7a4b e7bd ecc0 0e3d c230 febd
000001d0: 4210 f9bc e6d0 65bd 96cb e3bd cdec 14bd
000001e0: 74ba a73d 843f 313d 2101 913d 73fa f8bd
000001f0: 71ab 983d f501 21bd 419a 743d 5e09 96bd
00000200: 3d96 91bd f800 09bc e264 e1bc 66eb 9f3c
00000210: b3ec f3bd ea01 cabd f35e b83d 92d2 223e
00000220: cf5d e03c 6e79 383a ba5a 8dbd 4e87 59bc
00000230: 08a4 37bc 33c3 ffbd b847 60bd 46bd 96bb
00000240: d674 81bd 048b 1abb 706a 2abd 0430 d0bd
00000250: f35c 2bbc d105 d83d 136b a6bd 6ce0 813d
00000260: 5b23 4ebd 8253 ccbd 54c1 d73d 397e 66bc
00000270: c2e6 593c dcd7 3b3c 7883 84bd 1b0b debd
00000280: 2b8b e03d 9793 8abd 5f57 7a3c 2b95 00be
00000290: f3db 6ebd 235c 06bd 44b2 003d d5fe 66bd
000002a0: e3d5 bbbd 05f2 173e b135 323d 4dd3 9fbc
000002b0: 993b 4b3d 9ec1 acbd ac6e 6db9 4f8d 54bd
000002c0: ce96 f0bd 3a29 afbd 9ae0 053e 1d4e 66bc
000002d0: 2817 19bd 9c25 aabd 8f21 ecbd 5041 a93c
000002e0: 8dc1 393d 8fd4 c7bc eb6d 563d 03a5 e53d
000002f0: ac32 a3bc ad1b 0e3e a6da 083e 20b4 4dbd
00000300: 6ca0 fc3d 79dd 933d 95f3 a2ba de34 06bd
00000310: 81e1 06be 4492 7dbd ca17 f63d 05cf 9dbd
00000320: 5237 acbd d0fe c6bd 0b44 bf3d 623e f13d
00000330: 6254 e03d 4399 45bd 7e3d c93d 99a8 5a3d
00000340: 1620 d73b baa7 cbbd 3bbe eabd 1255 d3bd
00000350: 9ba0 ae3c 1e16 1f3d 53ea 203e 5526 323d
00000360: 26cc 27bd 7fe2 02bd 3c41 9aba 5dbc edbd
00000370: 4e08 983c f3d6 9a3d fc88 ac3d e1e9 20bd
00000380: 3473 473d 34b0 183b 1aa5 9fbd 9f28 edbd
00000390: 0698 5bbb 3a42 e53d b1ef 06be cf19 a9bd
000003a0: b835 e73d e097 cabd 8229 08be 94bd 1dbe
000003b0: 4f2e 5d3c 62c2 debc d09e f2bd f868 7b3d
000003c0: 8299 5abd 6d7e 463d 5db2 d63d 2dd7 e63d
000003d0: 4bba 953d 2a45 12be 7344 063e 3734 a1bd
000003e0: 5993 913b db0a 16bd 7b96 383c 16da 043c
000003f0: 8141 923d e7d9 c13d 17e9 40bd 3ff2 183e

lstm.bias_ih_l1 f4 [200]
-0.05552175 0.040082105 -0.051375374 0.08413662 -0.0391394 -0.115889184 -0.07169131 -0.0074574584
-0.09389028 0.102280304 0.006780085 0.09600032 -0.054402746 -0.081494115 -0.1296547 -0.094076805
-0.036231454 0.004344615 -0.13332106 0.08390057 -0.07028579 -0.13215652 0.05622751 -0.010659466
0.042986266 -0.06446675 0.025375504 -0.0030352133 -0.069546476 0.13368173 -0.00014407736 -0.10668359
0.15537027 -0.1009813 -0.06996238 0.014897284 0.010052656 0.10649277 -0.043077577 -0.12158724
0.15313819 -0.03750535 0.08523032 -0.029236816 -0.01685649 0.016017169 0.01228862 -0.0058886427
-0.04137421 -0.032131873 -0.099804685 -0.10731114 -0.14110105 -0.10305446 0.11062487 -0.08735893
-0.036345556 0.083424345 0.1274835 0.08534117 -0.115557596 0.09240842 0.03753445 -0.13684957
0.026784161 0.112971105 0.005176281 -0.0029268402 -0.019573592 0.11722716 0.10449132 -0.05453613
-0.023683744 -0.07055508 -0.044861168 0.075689346 0.055019405 -0.12683067 0.05363361 -0.02069265
-0.13849103 -0.111774 0.08043087 -0.08642075 0.07715354 0.11742208 0.14894891 0.08889024
-0.059038434 -0.06838509 0.14746016 -0.006697601 0.11604222 -0.10048754 -0.030438416 -0.03699192
-0.05654199 0.12682232 -0.07470716 -0.0069128135 0.10075769 -0.039080177 0.032357413 0.015384901
-0.14150514 0.055008948 -0.0014421883 -0.026987461 0.033374514 0.061069008 -0.06089393 0.06290997
0.13442203 -0.09153223 -0.11830292 0.074870355 0.1186757 -0.1133809 0.0898959 0.023113338
0.07816132 -0.025613321 0.15548071 0.09619077 0.03068504 -0.07437154 -0.012763135 0.06135385
0.06932096 0.0713245 -0.023279564 -0.04900891 -0.06972836 0.09142603 -0.111601025 0.070962965
0.14069605 -0.11541874 -0.014421368 0.121141486 0.07570184 0.01974067 -0.07135847 0.053867236
-0.09826628 -0.1344182 0.10256482 0.0028981832 0.1165304 0.056432385 0.11657519 -0.035090394
-0.061515752 0.0907929 0.060303178 -0.110055186 0.15349203 -0.0825744 -0.01175243 -0.053718064
0.059968174 -0.04414194 -0.13361762 -0.13942492 0.054697648 -0.04911105 0.07944398 -0.006897537
-0.05995952 0.06533212 0.038590513 -0.06610639 0.06882264 -0.0013438624 0.05406909 -0.07196097
-0.06206496 -0.076290056 -0.011830324 0.03662709 -0.077810906 -0.06084856 0.027864302 -0.13309745
0.022007983 0.086540565 -0.02695136 0.08730777 -0.096317954 0.09267446 0.14034452 0.011147134
-0.005816605 0.124671355 0.062176406 0.1347333 -0.0058428245 0.04809808 -0.027635135 -0.023284392
00000000: c66a 63bd 222d 243d fc6e 52bd d24f ac3d
00000010: a350 20bd 4f57 edbd e5d2 92bd b25d f4bb
00000020: 8c49 c0bd 5678 d13d 7a2b de3b d19b c43d
00000030: 6ad5 5ebd 63e6 a6bd 34c4 04be 57ab c0bd
00000040: 6f67 14bd 465d 8e3b 5185 08be 10d4 ab3d
00000050: fff1 8fbd 0a54 07be d14e 663d 0aa5 2ebc
00000060: 5e12 303d 2507 84bd 4ae0 cf3c 6eea 46bb
00000070: 626e 8ebd dde3 083e 7913 17b9 ed7c dabd
00000080: 6219 1f3e 49cf cebd 7048 8fbd bd13 743c
00000090: e5b3 243c e218 da3d 1d72 30bd bb02 f9bd
000000a0: 42d0 1c3e 369f 19bd 3c8d ae3d 0c82 efbc
000000b0: 9f16 8abc 7036 833c 3556 493c 84f5 c0bb
000000c0: 0178 29bd b69c 03bd 6666 ccbd f1c5 dbbd
000000d0: cb7c 10be 370e d3bd 4b8f e23d 3de9 b2bd
000000e0: 14df 14bd 62da aa3d 098b 023e 5ac7 ae3d
000000f0: 76a9 ecbd a040 bd3d b9bd 193d 4b22 0cbe
00000100: 756a db3c 655d e73d cb9d a93b 3bd0 3fbb
00000110: cc58 a0bc cb14 f03d 8cff d53d 4761 5fbd
00000120: 6904 c2bc 2f7f 90bd 58c0 37bd 0403 9b3d
00000130: 075c 613d e6df 01be ebae 5b3d a283 a9bc
00000140: 98d0 0dbe c4e9 e4bd f1b8 a43d 5dfd b0bd
00000150: ad02 9e3d fd7a f03d 1086 183e 160c b63d
00000160: 49d2 71bd 7b0d 8cbd ccff 163e 8d77 dbbb
00000170: 8ba7 ed3d 69cc cdbd fc59 f9bc d784 17bd
00000180: 9398 67bd b6dd 013e 1100 99bd e284 e2bb
00000190: 0c5a ce3d 8912 20bd 3589 043d f410 7c3c
000001a0: b9e6 10be 1051 613d cf07 bdba cf14 ddbc
000001b0: b7b3 083d 7f23 7a3d ea6b 79bd f1d6 803d
000001c0: eea5 093e 4075 bbbd cd48 f2bd a155 993d
000001d0: 3f0c f33d 3f34 e8bd 571b b83d 2f58 bd3c
000001e0: 0b13 a03d 07d3 d1bc 5636 1f3e abff c43d
000001f0: 315f fb3c 1b50 98bd 781c 51bc 2d4e 7b3d
00000200: 26f8 8d3d 9412 923d c9b4 bebc 91bd 48bd
00000210: becd 8ebd 923d bb3d 148f e4bd 0855 913d
00000220: a012 103e a960 ecbd 9a47 6cbc 0719 f83d
00000230: 9109 9b3d 30b7 a13c 6424 92bd e4a3 5c3d
00000240: d53f c9bd eda4 09be 810d d23d 72ef 3d3b
00000250: 7ea7 ee3d a525 673d f9be ee3d f2ba 0fbd
00000260: f1f7 7bbd a1f1 b93d 7700 773d 9d64 e1bd
00000270: 042d 1d3e c41c a9bd 448d 40bc 7907 5cbd
00000280: 30a1 753d 2ece 34bd 0fd3 08be 68c5 0ebe
00000290: a40a 603d ab28 49bd 86b3 a23d bc04 e2bb
000002a0: 1d98 75bd d9cc 853d 1611 1e3d c962 87bd
000002b0: e2f2 8c3d 8a24 b0ba 8d77 5d3d 4660 93bd
000002c0: d437 7ebd f63d 9cbd fad3 41bc 4a06 163d
000002d0: 535b 9fbd 573c 79bd ad43 e43c b34a 08be
000002e0: 164a b43c 2e3c b13d 19c9 dcbc 6bce b23d
000002f0: 5942 c5bd 1bcc bd3d 79b6 0f3e 78a2 363c
00000300: 3899 bebb b253 ff3d b0ac 7e3d 87f7 093e
00000310: 2a75 bfbb 7e02 453d 1463 e2bc e9be bebc

lstm.bias_hh_l1 f4 [200]
0.0019163588 -0.024637 -0.079293616 0.08963403 0.07040251 -0.05777776 0.109658875 -0.13085306
-0.04375349 0.06923635 -0.04205376 -0.049290285 0.004970581 0.0049725934 -0.023277974 -0.054973748
0.101411924 0.1442213 -0.12622446 0.06555332 -0.12349645 0.074500054 -0.11174607 0.0075827814
-0.07890126 -0.056004606 0.005102912 0.11013043 0.035507124 0.05812582 -0.014706417 -0.051981892
-0.0863962 -0.035257533 -0.1509251 -0.09934578 0.07144623 0.08002232 -0.13485852 -0.053313725
-0.10115231 -0.026246399 -0.082279555 -0.06541208 -0.06311583 -0.022115855 0.01889938 -0.05349711
-0.0070710466 -0.06549402 -0.117522016 -0.08320204 -0.09972735 -0.09984849 0.019577833 0.09724548
0.07977983 -0.030448638 -0.11445908 -0.036265764 0.07623568 0.088929266 -0.023103053 0.06100747
0.05517237 0.06407445 0.10806796 0.044339713 -0.12025818 0.020286411 0.090921074 0.067885965
0.13804814 -0.06921593 -0.10149418 0.10123761 -0.06685737 -0.06574262 0.08541208 0.01790794
-0.0100520775 -0.09486005 0.08738042 -0.1152285 0.080413856 0.06960391 0.037211344 -0.062320374
0.02945971 0.11412864 -0.02509808 -0.122721545 0.11115212 0.10537237 0.117601104 0.14787194
0.04934022 -0.046815157 0.0061813807 0.09017599 -0.07111893 -0.14708005 0.09925744 -0.08020302
0.021436553 0.02042081 -0.1532407 -0.114209026 0.017727185 -0.10790281 -0.06363994 -0.090858236
0.004871856 -0.118804485 0.04980021 -0.035249393 -0.13569087 -0.12571084 -0.13448529 -0.08280504
0.0070446176 0.0814361 -0.04242065 -0.10186035 0.025178557 -0.08626864 0.013356814 -0.02107142
-0.13199347 -0.015758272 -0.053776424 -0.038976844 -0.05746698 -0.051911034 0.014919113 -0.06179752
0.09624762 0.12429053 -0.12251837 0.1250039 0.09243152 0.008344937 -0.011432591 0.08770489
-0.00811599 0.055412523 0.049172845 -0.06706185 -0.10275084 -0.0008924637 -0.020464199 -0.07237942
0.010968679 0.09151059 -0.07874071 0.101123005 -0.050655797 -0.061978064 -0.04219596 0.030619053
-0.01143031 0.07520252 -0.115703635 0.11189478 0.0590906 -0.06539034 0.03947197 0.036113422
-0.05244142 0.1098943 -0.1385159 -0.032080784 -0.04577811 -0.013953101 0.04450195 -0.053054806
0.027803347 -0.06728433 0.10261228 -0.07510781 -0.05986267 -0.085280746 0.09406878 0.05175849
0.117483735 0.10826504 0.061681356 -0.016002018 0.05879318 -0.03434568 0.028295137 0.034966934
-0.14688404 -0.060116615 0.08516424 -0.032561645 0.05018584 0.12178443 0.08833175 -0.06929854
00000000: 552e fb3a 89d3 c9bc b164 a2bd 0c92 b73d
00000010: 312f 903d 5fa8 6cbd d594 e03d 58fe 05be
00000020: dc36 33bd cacb 8d3d 9040 2cbd 9ce4 49bd
00000030: 41e0 a23b 23f1 a23b 73b1 bebc 272c 61bd
00000040: 0eb1 cf3d c0ae 133e fc40 01be d240 863d
00000050: b5eb fcbd 7c93 983d 20db e4bd fb78 f83b
00000060: fc96 a1bd 1665 65bd 5436 a73b 108c e13d
00000070: eb6f 113d 5715 6e3d 2ff3 70bc f7ea 54bd
00000080: 7ef0 b0bd 346a 10bd 1c8c 1abe cd75 cbbd
00000090: 6752 923d bee2 a33d 5a18 0abe 7e5f 5abd
000000a0: f128 cfbd b002 d7bc 2f82 a8bd c5f6 85bd
000000b0: df42 81bd 4f2c b5bc dfd2 9a3c c91f 5bbd
000000c0: 3db4 e7bb bb21 86bd 62af f0bd d565 aabd
000000d0: da3d ccbd 5d7d ccbd b161 a03c a328 c73d
000000e0: 9c63 a33d 6c6f f9bc 8669 eabd 698b 14bd
000000f0: 7421 9c3d 8c20 b63d 9d42 bdbc f8e2 793d
00000100: 6cfc 613d 7739 833d bc52 dd3d 8f9d 353d
00000110: ec49 f6bd b02f a63c d434 ba3d cc07 8b3d
00000120: 7e5c 0d3e 15c1 8dbd 2edc cfbd aa55 cf3d
00000130: 84ec 88bd 11a4 86bd 87ec ae3d acb3 923c
00000140: 78b1 24bc fc45 c2bd 81f4 b23d ebfc ebbd
00000150: 05b0 a43d 7f8c 8e3d ec6a 183d a643 7fbd
00000160: 7d55 f13c 47bc e93d 7d9a cdbc 6f55 fbbd
00000170: b9a3 e33d 78cd d73d d9d8 f03d be6b 173e
00000180: f818 4a3d 40c1 3fbd 2e8d ca3b 30ae b83d
00000190: cda6 91bd 279c 16be 7c47 cb3d 7b41 a4bd
000001a0: b69b af3c 8b49 a73c 21eb 1cbe 6ce6 e9bd
000001b0: 9a38 913c 26fc dcbd a855 82bd e213 babd
000001c0: 17a4 9f3b c44f f3bd 4efb 4b3d ab61 10bd
000001d0: 8cf2 0abe 58ba 00be 83b6 09be b095 a9bd
000001e0: 89d6 e63b f8c7 a63d 47c1 2dbd 299c d0bd
000001f0: 4343 ce3c 9dad b0bd 8ad6 5a3c f89d acbc
00000200: 4c29 07be 7e17 81bc ab44 5cbd 2fa6 1fbd
00000210: 7f62 6bbd aaa0 54bd 4c6f 743c 651f 7dbd
00000220: 791d c53d 098c fe3d e9ea fabd 0601 003e
00000230: bd4c bd3d 34b9 083c c34f 3bbc 9f9e b33d
00000240: eef8 04bc 3ef8 623d 7769 493d b957 89bd
00000250: 086f d2bd 3af4 69ba 89a4 a7bc a93b 94bd
00000260: f9b5 333c e769 bb3d cf42 a1bd 9419 cf3d
00000270: 747c 4fbd b6dc 7dbd acd5 2cbd cfd4 fa3c
00000280: 3246 3bbc c703 9a3d 07f6 ecbd 1729 e53d
00000290: fc08 723d 5feb 85bd 5cad 213d abeb 133d
000002a0: d0cc 56bd 4310 e13d 1dd7 0dbe 2467 03bd
000002b0: d481 3bbd 8c9b 64bc ad47 363d ff4f 59bd
000002c0: d8c3 e33c 5ecc 89bd 6326 d23d 20d2 99bd
000002d0: 8f32 75bd aca7 aebd 22a7 c03d b600 543d
000002e0: 509b f03d 10ba dd3d 97a5 7c3d aa16 83bc
000002f0: 1ed1 703d 0eae 0cbd 34cb e73c 7d39 0f3d
00000300: c568 16be d73c 76bd 976a ae3d 5c5f 05bd
00000310: ab8f 4d3d 1e6a f93d 47e7 b43d 65ec 8dbd

fc.weight f4 [1, 50]
-0.10841486 0.00619264 -0.06787469 -0.11204018 -0.123304546 0.123913474 -0.14301805 -0.13935418
-0.12894191 -0.10742217 -0.14107236 0.059284177 0.002203462 0.078688174 -0.006640563 -0.11840783
-0.09602415 -0.025675371 -0.08112646 0.06994387 0.03254327 -0.049562205 0.14109798 0.06742008
0.050792564 0.014197296 0.037685346 -0.06368445 -0.14581399 0.025306042 0.07638244 0.11258402
-0.13127859 -0.015324854 0.043569274 -0.048933778 0.07782375 -0.11158335 0.0024301552 0.0423849
0.043733973 0.05805628 0.0987236 -0.00438054 0.04976896 -0.12038893 0.010648062 -0.121048495
0.013218632 0.053423095
00000000: 9c08 debd a1eb ca3b e301 8bbd 5275 e5bd
00000010: 1887 fcbd 59c6 fd3d 5373 12be ddb2 0ebe
00000020: 5909 04be 2800 dcbd 4675 10be f7d3 723d
00000030: f567 103b 4427 a13d 1499 d9bb ce7f f2bd
00000040: 4fa8 c4bd 2855 d2bc a125 a6bd bb3e 8f3d
00000050: 184c 053d bd01 4bbd fd7b 103e 8a13 8a3d
00000060: dd0b 503d c79b 683c f35b 1a3d fe6c 82bd
00000070: 4350 15be 9e4e cf3c 666e 9c3d 7392 e63d
00000080: e56d 06be 1915 7bbc b275 323d c96e 48bd
00000090: 0f62 9f3d d085 e4bd 3d43 1f3b ca9b 2d3d
000000a0: 6522 333d 6ccc 6d3d 992f ca3d a28a 8fbb
000000b0: 89da 4b3d 798e f6bd 3675 2e3c 46e8 f7bd
000000c0: f692 583c 2dd2 5a3d
